rl_trainer/models/olympics-curling/run5/trained_model/actor_3400.pth (torch, 241503 bytes, 4 tensors)

linear_in.weight f4 [64, 900]
0	0xbd1d269f	-0.03836691
1	0xbd4b6b57	-0.049662914
2	0xbcfdab8b	-0.030965587
3	0x3de2bc50	0.11071074
4	0x3bd90df9	0.00662398
5	0xbd0f41db	-0.034974914
6	0xbdf7f3e9	-0.12107069
7	0xbd15a3c5	-0.036533136
8	0x3bde60d2	0.006786444
9	0xbc853239	-0.0162593
10	0x3c766afd	0.015040156
11	0x3c04c4da	0.008103574
12	0x3daf6b39	0.08565373
13	0x3e0ca2e1	0.13734008
14	0x3e058eda	0.13042775
15	0x3dbea4b3	0.09308758
16	0x3c8f6632	0.017504785
17	0x3c793a41	0.015211643
18	0x3cb1bd00	0.021696568
19	0xbd2e6c5c	-0.04258381
20	0xbd4e143a	-0.05031226
21	0xba659f47	-0.0008759391
22	0x3ca11836	0.019664865
23	0x3d30cb8c	0.043162867
24	0x3e08fbf4	0.13377362
25	0xbcf8ca59	-0.030369924
26	0xbd52e481	-0.05148745
27	0xba9aa425	-0.0011798186
28	0x3d6a3c5a	0.057186462
29	0x3d7dd912	0.061974593
30	0xbd1e1cd7	-0.038601723
31	0xbd002a86	-0.031290554
32	0x3ba6a6e7	0.0050858143
33	0xbbd4f18d	-0.0064985217
34	0xbcb5b1aa	-0.022179443
35	0xbd2fbf4d	-0.042907048
36	0x3d3872db	0.04503141
37	0xbd404382	-0.04693938
38	0xbd8dc511	-0.06922353
39	0xbcfb286f	-0.030658929
40	0x3e2d1370	0.16901946
41	0xbc85570d	-0.01627686
42	0x3cd76d8d	0.026297355
43	0x3bb957e6	0.0056562303
44	0x3c692948	0.014231034
45	0x3d036331	0.03207702
46	0xbceaf1ab	-0.02867969
47	0xbd54f815	-0.051994402
48	0xbd47629b	-0.048678022
49	0xbce97cff	-0.028501986
50	0xbe238aa4	-0.15970856
51	0x3d63294c	0.055459306
52	0x3e208169	0.15674366
53	0x3d415fef	0.04721063
54	0x3df6ecd0	0.12056887
55	0x3d678568	0.05652371
56	0xbd21a72b	-0.039466064
57	0x3d8698d0	0.065721154
58	0xbcc9fb58	-0.024655983
59	0xbc36886c	-0.011140924
60	0xbe0eedd6	-0.13957915
61	0xbc24975f	-0.010045855
62	0x3dd66102	0.104677215
63	0x3cbdf9c9	0.023190396
64	0xbd9c8826	-0.07643156
65	0x3c8f36d6	0.017482203
66	0x3b8dc23d	0.0043261335
67	0xbc682f97	-0.014171503
68	0xbe116fb1	-0.14202763
69	0xbdc49037	-0.09597819
70	0x3d1cda46	0.0382941
71	0x3e0b8df1	0.13628365
72	0xbd6b4cbf	-0.057446238
73	0xbdb32d12	-0.08748831
74	0xbdc0d317	-0.09415262
75	0x3d19115b	0.037370067
76	0xbd608a67	-0.05481949
77	0xbd571045	-0.05250575
78	0xbc948136	-0.018128019
79	0x3cfb5d7a	0.030684222
80	0xbdd67129	-0.10470802
81	0xb9a37928	-0.0003118005
82	0x3db73b6d	0.089468814
83	0xbc966851	-0.018360289
84	0xbaaef51d	-0.0013348196
85	0x3dacb1f6	0.08432381
86	0x3e428279	0.18995084
87	0x3d92f669	0.07175905
88	0xbe03bf1b	-0.1286587
89	0xbdab66b0	-0.083691955
90	0xbd440b41	-0.047862295
91	0xbd99e50a	-0.07514389
92	0xbc443f9c	-0.011978056
93	0xbdaa66ac	-0.08320364
94	0xbe009a0c	-0.12558764
95	0xbda3ee34	-0.08004418
96	0xbdd389af	-0.103289954
97	0xbd2b4ee8	-0.041823298
98	0xbdb2af25	-0.087248124
99	0x3d676720	0.056494832
100	0xb9b811e4	-0.00035108544
101	0x3d430704	0.047614112
102	0x3ccdfa77	0.025143845
103	0xbe19b0e5	-0.15008886
104	0xbdc8e854	-0.09809938
105	0xbdc7fbbf	-0.09764814
106	0x3d6ecafa	0.058299042
107	0xbbbee205	-0.0058252835
108	0x3d3c824e	0.046022706
109	0xbca1bdbb	-0.01974379
110	0xbd1c580b	-0.0381699
111	0x3b8a88a8	0.0042277165
112	0x3d8702d7	0.065923385
113	0xbd0b20d8	-0.03396687
114	0x3d935648	0.07194191
115	0x3e2aa60f	0.16664909
116	0x3d01d44e	0.03169661
117	0x3d04c7b8	0.03241703
118	0xbdefe0b6	-0.11712782
119	0xbe46c0b8	-0.19409454
120	0xbc97afd9	-0.018516468
121	0x3b3d5fed	0.0028896288
122	0x3d0831de	0.033250682
123	0xbd970d54	-0.07375589
124	0xbe3f8948	-0.18704712
125	0xbdbc8156	-0.09204356
126	0xbe420793	-0.18948202
127	0xbe4f53b0	-0.20246768
128	0x3d0461bc	0.03231977
129	0x3c3ce23a	0.011528546
130	0x3cd45be8	0.02592273
131	0xbbc78823	-0.006089227
132	0x3c488aa9	0.01224009
133	0xbd1e2cef	-0.03861707
134	0xbe17d118	-0.14825857
135	0xbd05e1e6	-0.032686137
136	0xbd99e66a	-0.07514651
137	0x3d3c1bd0	0.04592496
138	0x3ccc3bd5	0.024930874
139	0xbcff909a	-0.031196881
140	0xbd88e4a7	-0.06684237
141	0xbcca9d45	-0.024733195
142	0xbdbc4bf7	-0.09194177
143	0x3e07a4e6	0.13246498
144	0x3dd02129	0.10162575
145	0x3d8f5ad0	0.06999743
146	0x3c14be33	0.00907855
147	0xbd339886	-0.04384663
148	0x3d1a1163	0.037614238
149	0x3dbb2bc7	0.09139209
150	0xbb882b55	-0.004155556
151	0x3d3025c2	0.04300476
152	0x3c7edadd	0.015555111
153	0xbdb07c2f	-0.08617436
154	0xbe5c65c3	-0.21523194
155	0xbe263cb3	-0.16234092
156	0xbe4775c4	-0.19478518
157	0xbe021622	-0.12703755
158	0x3ceb87bb	0.028751245
159	0x3d0b9fa9	0.03408781
160	0x3d2a86db	0.041632514
161	0x3d398d6c	0.045300886
162	0x3d30dc07	0.043178584
163	0xbdf9b2eb	-0.12192329
164	0xbe13e554	-0.1444295
165	0xbd964042	-0.07336475
166	0xbd13afba	-0.036056258
167	0x3d9a4399	0.075324245
168	0x3bd4b335	0.0064910897
169	0xbd4f92c6	-0.050677083
170	0xbc6a2056	-0.014289936
171	0x3cdd0625	0.026980469
172	0x3e012039	0.12609948
173	0x3cf32fe3	0.02968592
174	0x3ca5008c	0.020141862
175	0x3d2a830e	0.04162889
176	0x3cb22d9f	0.02175027
177	0xbca3f353	-0.020013487
178	0x3d8a542d	0.067543365
179	0x3d5b85aa	0.05359427
180	0x3d34f4c9	0.044178758
181	0x3d00c77b	0.03144024
182	0xbc69be31	-0.014266537
183	0xbd445b4f	-0.04793864
184	0xbe257e3d	-0.16161437
185	0xbddff942	-0.10936214
186	0xbe355863	-0.17709498
187	0xbe107a8f	-0.14109252
188	0xbdfc4f42	-0.12319805
189	0xbd729c0f	-0.05923086
190	0xbd0c6cad	-0.03428333
191	0xbdb16417	-0.08661669
192	0xbd62d521	-0.055379037
193	0xbc7be3f1	-0.01537417
194	0xbd597bf5	-0.05309673
195	0xbc043fcc	-0.008071851
196	0x3c14ce81	0.0090824375
197	0x3d92accf	0.07161867
198	0x3d901448	0.07035118
199	0xbda2026e	-0.0791062
200	0xbd36293b	-0.044472914
201	0x3d4d502f	0.050125297
202	0x3d8ebed5	0.06969992
203	0xbc67d2d7	-0.014149389
204	0x3d1cf74a	0.03832177
205	0x3a8dcfc2	0.0010819363
206	0x3caf9bde	0.021436628
207	0x3c17c4a2	0.0092631895
208	0xbbd9ed79	-0.0066506234
209	0x3d72f365	0.05931415
210	0x3ddbe6b4	0.107373625
211	0x3dd1c7fc	0.10243222
212	0x3ccbcb78	0.024877295
213	0xbd6ab839	-0.057304595
214	0xbda5ee7c	-0.08102128
215	0xbe2ea638	-0.17055595
216	0xbdcfa938	-0.10139698
217	0xbcabd162	-0.020973865
218	0xbcd21543	-0.025644904
219	0xbd0c40e4	-0.034241572
220	0xbc5a31ed	-0.013317567
221	0xbbcfbcc9	-0.0063396436
222	0xbe2d8f89	-0.16949286
223	0xbe1d80ad	-0.15381117
224	0x3cef8db3	0.029242372
225	0x3d36536a	0.044513144
226	0xbd154da1	-0.036450986
227	0x3c2a7e71	0.010406123
228	0x3dd28d37	0.10280841
229	0x3e436468	0.1908127
230	0x3c44ff7b	0.012023802
231	0xbc162327	-0.009163654
232	0xbd5ad85e	-0.053429
233	0xbda4a048	-0.08038384
234	0xbd89af27	-0.06722861
235	0x3c751c91	0.014960424
236	0xbba9316f	-0.0051633636
237	0x3d34472d	0.04401319
238	0xbba6f30f	-0.005094893
239	0xbd8b6d66	-0.068079755
240	0xbc4f259f	-0.012643247
241	0xbbf1f95a	-0.0073844614
242	0x3d4a0002	0.049316414
243	0x3c01e84f	0.007928922
244	0xbe0800e6	-0.13281593
245	0xbe86437b	-0.2622336
246	0xbdd2705d	-0.10275338
247	0x3b5753ec	0.0032856418
248	0xbcc8ec6b	-0.024526795
249	0xbdbd2b34	-0.09236756
250	0x3c925d73	0.017866826
251	0xbd7aa4dd	-0.061192382
252	0xbd5b9837	-0.05361196
253	0xbcbbf690	-0.022944719
254	0x3d6d1f2f	0.057891067
255	0xbd1d3ab1	-0.03838605

linear_in.bias f4 [64]
0	0xbd8d9865	-0.069138326
1	0x3d1d3d4c	0.038388535
2	0xbdb19ce3	-0.08672502
3	0xbe1f6c63	-0.1556869
4	0xbdd4fb84	-0.10399535
5	0x3d28ec03	0.041240703
6	0x3d673c81	0.056454185
7	0xbd590b27	-0.05298915
8	0xbe051dfd	-0.12999721
9	0xbd76ba53	-0.060236286
10	0x3b74377d	0.003726452
11	0xbd6c5b5c	-0.057704315
12	0xbd98901a	-0.0744936
13	0x3c506371	0.012719021
14	0xbd8f15ae	-0.06986557
15	0xbd656056	-0.056000076
16	0xbcafeb7d	-0.021474594
17	0xbd7d6f1b	-0.061873537
18	0xbd4504de	-0.048100345
19	0xbe05f141	-0.13080312
20	0x3d504684	0.0508485
21	0xbd55c6dd	-0.052191604
22	0x3da880f3	0.0822772
23	0x3d61589d	0.05501615
24	0xbd200c07	-0.03907397
25	0xbdfb7350	-0.122778535
26	0x3d00d993	0.031457495
27	0xbde4aeab	-0.11166128
28	0xbd2e12ae	-0.042498283
29	0xbd9b870b	-0.07594117
30	0xbc5620e9	-0.01306937
31	0xbd40c264	-0.047060385
32	0xbdb8b948	-0.090197146
33	0x3d2c932e	0.04213255
34	0x3d026907	0.031838443
35	0xbbeaf47a	-0.007170257
36	0xbd56feaa	-0.05248896
37	0xbd36dd5e	-0.044644706
38	0xbd7ac72c	-0.0612251
39	0xbd7fd399	-0.062457655
40	0xbd06e098	-0.032929033
41	0xbd51dcb4	-0.05123587
42	0xbcb4a995	-0.02205352
43	0xbd15a4af	-0.036534008
44	0xbdb06c1d	-0.08614371
45	0x3c8c9ab1	0.017163606
46	0x3d0545d7	0.032537308
47	0x3d24eb29	0.04026333
48	0xbd948052	-0.07251038
49	0x3ce68cef	0.028143374
50	0xba06ddff	-0.00051447743
51	0x3ba5597d	0.005046068
52	0xbd75f849	-0.060051236
53	0x3cb1d4c2	0.021707896
54	0xbdc45dd3	-0.09588208
55	0xbd2e470c	-0.042548224
56	0xbd988819	-0.074478336
57	0x3c2413bb	0.01001447
58	0x3dafc98b	0.08583363
59	0xbc8a3073	-0.016868806
60	0xbdb75721	-0.089521654
61	0xbd9a7465	-0.07541732
62	0xbd86a8d0	-0.06575167
63	0xbd29d083	-0.041458618

action_head.weight f4 [36, 64]
0	0x3e6875e3	0.2270122
1	0x3e7a79bb	0.24460499
2	0xbd4c6d6f	-0.04990905
3	0xbd2a2aeb	-0.041544836
4	0x3cf29c42	0.029615525
5	0x3e3d5178	0.18488109
6	0xbd61183a	-0.054954745
7	0xbaad6556	-0.0013229053
8	0x3da99607	0.082805686
9	0x3d966ba6	0.07344751
10	0xbe17d636	-0.14827809
11	0x3dcf8045	0.10131887
12	0x3e6a846c	0.22902077
13	0x3e0a8c65	0.13530119
14	0x3d0aa517	0.03384885
15	0x3bd71eb5	0.00656494
16	0xbc9f3a0b	-0.019436857
17	0x3df905be	0.12159298
18	0x3e4a77a6	0.19772205
19	0x3de263e9	0.110542126
20	0x3e131559	0.14363612
21	0x3e82522a	0.2545331
22	0x3e8b661f	0.2722635
23	0x3e5c4d82	0.21513942
24	0x3d928cf8	0.07155794
25	0x3e574112	0.21020916
26	0x3e02670d	0.12734623
27	0x3e2a6b55	0.16642506
28	0x3ea841d8	0.32862735
29	0xbc9484c2	-0.01812971
30	0x3e978401	0.29592898
31	0x3dbc179f	0.09184193
32	0x3ea00b5d	0.3125867
33	0x3e9f295f	0.3108625
34	0x3e23e071	0.16003586
35	0x3e51447d	0.20436282
36	0x3e29dafa	0.16587439
37	0x3e8f65c9	0.28007343
38	0x3ea3849f	0.3193712
39	0x3db75358	0.089514434
40	0x3e8d0dc6	0.2754957
41	0x3e7695fa	0.24080649
42	0x3e29557b	0.16536514
43	0x3e816a7d	0.25276557
44	0xbe01b20a	-0.12665573
45	0x3dd031b9	0.10165734
46	0x3e889199	0.26673582
47	0x3d931281	0.07181264
48	0x3e2d1da6	0.16905841
49	0x3d14fa37	0.036371436
50	0x3e6446f3	0.2229269
51	0x3dd0cb0e	0.101949796
52	0x3deffd62	0.11718251
53	0x3e2d2734	0.16909486
54	0x3e11b2a0	0.14228296
55	0xbba3544d	-0.0049844147
56	0x3e660f04	0.22466666
57	0x3e9a1f3a	0.3010195
58	0x3c6b07b1	0.0143450955
59	0x3eaa1fbc	0.33227336
60	0x3e112a62	0.14176324
61	0x3e8f4829	0.2798474
62	0xbd770d76	-0.06031557
63	0x3e2f827e	0.17139623
64	0x3ddd19a6	0.10795908
65	0x3dc3cffd	0.09561155
66	0x3e997c03	0.29977426
67	0xbb28dc10	-0.0025765933
68	0xbd643d8f	-0.05572277
69	0x3c2fbab5	0.010725667
70	0x3dcd0223	0.10010173
71	0x3d1135d9	0.035451744
72	0x3e115b50	0.14194989
73	0xbd347e17	-0.04406556
74	0x3cde35a9	0.027125197
75	0x3ddb1fe0	0.10699439
76	0x3e016f8d	0.1264021
77	0x3df4f4c5	0.119607486
78	0x3dd3125e	0.10306238
79	0x3e305c5f	0.17222737
80	0x3d446807	0.04795077
81	0x3de6e34b	0.112738214
82	0x3d638884	0.055550113
83	0x3e20dec3	0.15709977
84	0x3e136c33	0.14396743
85	0x3eaae6c0	0.33379173
86	0x3df77433	0.1208271
87	0x3e84ce2a	0.2593854
88	0x3e308992	0.17239979
89	0x3e76ba77	0.24094568
90	0x3e150201	0.14551546
91	0x3e69a114	0.22815353
92	0x3e7ed692	0.2488654
93	0x3e56bdda	0.2097086
94	0x3c35edcb	0.011104058
95	0xbccc7e61	-0.024962606
96	0x3d63fc1b	0.05566035
97	0x3e1e637f	0.15467642
98	0x3e1e5842	0.15463355
99	0x3e506035	0.203492
100	0x3dec5be0	0.11540961
101	0x3e94cd6c	0.29062974
102	0x3e8978bf	0.26849934
103	0x3e3f13a9	0.18659844
104	0x3e5f9aaa	0.21836343
105	0x3db5bdb1	0.088740714
106	0x3daba4c7	0.08381038
107	0x3e379d1c	0.17931026
108	0x3e224740	0.15847492
109	0x3e56cde4	0.20976979
110	0x3e99183a	0.29901296
111	0xbb503a73	-0.003177312
112	0x3d721b75	0.059108216
113	0x3e852ac1	0.2600918
114	0x3e98a598	0.29813838
115	0x3e5c2d03	0.21501546
116	0x3e8ccaa1	0.27498344
117	0x3e3f5fea	0.18688932
118	0x3e99b898	0.30023646
119	0x3e02cdd6	0.12773833
120	0xbcf2841a	-0.029604007
121	0x3e4656f6	0.1936911
122	0x3ec12087	0.3772013
123	0x3da6e267	0.081486516
124	0x3e723a92	0.23655155
125	0x3dcc2570	0.09968078
126	0x3e784a23	0.24247031
127	0x3db9d448	0.090736926
128	0x3d8cadd4	0.068690926
129	0x3e105882	0.14096263
130	0x3e9ca314	0.3059317
131	0x3dd4913a	0.10379262
132	0x3eb4ade6	0.35288924
133	0x3d24890d	0.040169764
134	0x3e5dc04f	0.21655391
135	0x3c9c576e	0.019084658
136	0x3db5286c	0.088456005
137	0x3e381c75	0.17979605
138	0x3e8f8996	0.28034657
139	0x3dca24ae	0.09870277
140	0x3dfc728e	0.12326537
141	0x3e2a0b90	0.16605973
142	0x3e7af7c2	0.24508575
143	0x3dac127c	0.08401963
144	0x3e850023	0.25976667
145	0x3d95aa76	0.073079035
146	0x3e53f0a0	0.2069726
147	0x3e74e73e	0.23916337
148	0x3d9e2a6b	0.07722934
149	0x3d13b1ed	0.036058355
150	0x3e599eff	0.21252058
151	0x3dba2e8f	0.090909116
152	0x3e304269	0.17212833
153	0x3dc59a3a	0.09648557
154	0x3ea53ad2	0.3227144
155	0x3e4944dd	0.19655176
156	0x3e2f2082	0.17102244
157	0x3e3b8fd2	0.18316582
158	0x3c5667d4	0.013086278
159	0x3e362d4d	0.17790718
160	0x3e486d2f	0.195729
161	0x3ecad275	0.3961369
162	0xbd85154b	-0.06498202
163	0xbba61846	-0.0050688116
164	0x3e459fd8	0.19299257
165	0x3e9d1342	0.30678755
166	0x3ea55039	0.32287768
167	0x3d4cd58c	0.05000834
168	0x3e997e91	0.29979375
169	0x3e126634	0.142968
170	0x3eaa9134	0.33313906
171	0x3e4b27e8	0.19839442
172	0xbccfe120	-0.025375903
173	0x3e22c89e	0.15896842
174	0x3e2dbecc	0.16967314
175	0x3e57c798	0.21072233
176	0x3d4189ca	0.047250547
177	0x3e996734	0.2996155
178	0x3e043ffe	0.12915036
179	0xbdaa1af9	-0.08305926
180	0x3e57666b	0.21035163
181	0x3d4b37f7	0.04961392
182	0x3e86a04e	0.26294178
183	0x3eaead66	0.34116668
184	0x3e143c71	0.14476182
185	0x3e834308	0.25637078
186	0x3e8d0d87	0.27549383
187	0x3e44ee9f	0.19231652
188	0x3e1b0674	0.1513918
189	0x3e40c44e	0.18824884
190	0x3d3f3d62	0.0466894
191	0x3d05515d	0.032548297
192	0x3e0ad8f5	0.13559325
193	0x3eab626b	0.33473524
194	0x3ecd0262	0.4004088
195	0x3d367e18	0.044553846
196	0x3e4898c6	0.19589528
197	0x3e244cfe	0.16044995
198	0x3ca94d1f	0.020666657
199	0x3e48b46d	0.19600077
200	0x3e177f0f	0.14794563
201	0x3e682d4a	0.22673526
202	0x3e3b9b56	0.18320975
203	0x3c39c18b	0.011337648
204	0x3d204be1	0.039134864
205	0x3e84b6a7	0.25920603
206	0x3e8bac1a	0.2727974
207	0x3e070eec	0.13189286
208	0xbd29cb89	-0.041453872
209	0x3e3812dc	0.17975944
210	0x3dd2bd76	0.10290043
211	0x3e494171	0.1965387
212	0x3e9e5b70	0.30929136
213	0x3c82582b	0.015911182
214	0x3def28cf	0.116777055
215	0x3d799b07	0.06093886
216	0x3e8e6182	0.27808768
217	0x3d6bd2d7	0.05757412
218	0x3d182f21	0.03715432
219	0x3e263815	0.16232331
220	0x3d8b0e2b	0.06789812
221	0x3d1a7774	0.037711576
222	0x3e11fdd7	0.14256988
223	0x3e8473a7	0.25869486
224	0x3e5bf60a	0.21480575
225	0x3e67e732	0.22646788
226	0xbce45a3c	-0.027875058
227	0x3ea7e622	0.32792765
228	0x3ea08daf	0.31358096
229	0x3ddde6bb	0.10835024
230	0x3e32699e	0.17423102
231	0x3ccd263c	0.025042646
232	0x3e762e9b	0.24041216
233	0x3e2a318d	0.16620465
234	0x3e74e169	0.23914112
235	0x3e5a2b8f	0.21305679
236	0xbce49611	-0.027903588
237	0x3e527a1c	0.20554394
238	0x3e98c24f	0.29835746
239	0x3e94abd9	0.2903736
240	0x3dc5850f	0.096445195
241	0x3eb8db3d	0.36104766
242	0x3eb374be	0.35050005
243	0x3ce47a62	0.027890388
244	0x3e5f208c	0.2178976
245	0x3e71d64d	0.23616906
246	0x3ea7fd60	0.32810497
247	0x3dbb4bbc	0.091453046
248	0x3e2ffaa2	0.17185453
249	0x3e872441	0.26394847
250	0x3e59c219	0.21265449
251	0x3e3e0838	0.18557823
252	0x3ddf5083	0.10904028
253	0x3d8713b5	0.06595556
254	0x3e363c74	0.17796499
255	0xbd462ae1	-0.048380736

action_head.bias f4 [36]
0	0x3e5a4f00	0.21319199
1	0x3e544dc8	0.20732796
2	0x3d5baf9b	0.053634267
3	0x3e2103fb	0.15724175
4	0x3e1bd45e	0.1521773
5	0x3d798f89	0.0609279
6	0x3dd9f9d1	0.10643352
7	0x3e7d03a2	0.24708417
8	0x3d26aa4b	0.040689748
9	0x3de49c76	0.11162655
10	0x3d1fb894	0.038994387
11	0x3d05e191	0.03268582
12	0x3d9aa9db	0.075519286
13	0x3d9c56a8	0.07633716
14	0x3db9b97f	0.09068584
15	0x3dcb0feb	0.099151455
16	0x3e63d161	0.2224784
17	0x3e6a86b8	0.22902954
18	0x3e12cda7	0.14336263
19	0x3e00fa1e	0.12595412
20	0x3d8fcc03	0.07021334
21	0x3d1223d7	0.03567871
22	0x3dd08cb7	0.10183089
23	0x3e95a10f	0.2922444
24	0x3e0db4db	0.13838522
25	0x3e16da67	0.14731751
26	0x3e5942bd	0.21216865
27	0x3e90f4d5	0.28311792
28	0x3e6433b7	0.22285353
29	0x3e7f6775	0.2494181
30	0x3e9ab1e4	0.30213845
31	0x3e9627f5	0.2932736
32	0x3e9cfe60	0.30662823
33	0x3e46cd33	0.19414215
34	0x3e99fc8d	0.30075493
35	0x3e81825f	0.25294778
