rl_trainer/models/olympics-curling/run5/trained_model/critic_3400.pth (torch, 232415 bytes, 3 tensors)

linear_in.weight f4 [64, 900]
00000000: 1277 85be 0e9c c7be ad8d c7bc 27e7 f93c
00000010: fcb3 1b3d e2d1 ad3c f254 0d3e 6a99 25bd
00000020: 1dd1 0ebe 73ea 2d3d 493c c1bc bb43 133e
00000030: af88 5b3e 8cfa 2e3e 2003 6d3d 078b ab3d
00000040: 2316 863e d23e 6b3e 212c 513d 3b02 fb3c
00000050: 26bf 783e 1042 063d 94ea 573e d706 c2bd
00000060: d9e2 a23d 50be a9bd e669 7dbd d6ab fdbd
00000070: df31 293c 0e69 c3bd dd23 8e3e 9e8b a03d
00000080: def5 413e dbe1 1e3e 8e0e 473c 118d 08bd
00000090: 9dfd 923e 1daf 213e dc5c f2bd edd8 2e3d
000000a0: 24ce 6b3e 9de5 943e 3037 b63e fcd3 5d3e
000000b0: e5fb 2c3e bc0e 913e 8c76 a33e 854e 3f3e
000000c0: 08b4 df3e ac88 483e d1e6 a63e ed86 bf3e
000000d0: 8bf7 013e d920 853e 467c 5a3d d2ab 04bd
000000e0: 9548 abbb 46ac 9a3d d4ca a23d c102 a53d
000000f0: 62f8 963d 939a d03d c54c 623d b5e8 3d3e
00000100: 3a31 d63d 28d0 443d c0d3 993e df97 8f3e
00000110: 25fd a03d 872d d93e 600e 2b3e 8972 3e3e
00000120: c18e ac3e 0809 743e 2b45 4c3e 22a6 2e3e
00000130: b4eb 873e e95d 273e 95b1 073f 7ffb 5a3e
00000140: 9641 c53e 21c4 293f 986f 9a3e 0f81 433e
00000150: 871f 913e b68d 273e ca53 513e 9dbe 213e
00000160: 5e86 993c c06f e73d e0ed 813c 06c6 0f3e
00000170: e10c 093e 3c5d 653e c094 923d 5ac6 903c
00000180: 45d9 d63d e08c ad3e 572d 7d3e 3218 353e
00000190: dcf9 733e 251b 853e 18cf 283e d91e 923e
000001a0: 49fc bd3d 45e7 a13e 2860 703d ed70 6c3e
000001b0: bec5 533e 6c03 a83e a82a a43e f19f bc3e
000001c0: d08a d53e 8a3a 5a3e c150 893e b1df 6ebd
000001d0: 4b1f c9bd c9f0 0cbe 95eb 983d 66d3 7c3e
000001e0: ddb0 993d 4517 5f3e 05fa b53e 86fc c13e
000001f0: 8dfa 4b3e b75f 433e b47a a93d a837 e23e
00000200: 67ac 633e 9a19 3d3e 9fac 713e c24c 183e
00000210: 5d45 fe3c dd90 d73d c1ee 433e dfcc eb3d
00000220: 1c1c ca3e 7b91 ff3e 858d a33e 4fc5 6f3d
00000230: cb9f 173e 9133 ad3d 476b 883e 2c53 52bd
00000240: a096 273e df6a c33a c4b6 9b3d c948 533e
00000250: d211 83bd ca6a a93e 7a2a 193e 9a54 203e
00000260: 40b5 f03d fc06 b83e 0929 0f3f a648 303e
00000270: 8774 453e e4b1 eb3e ac69 ea3d 25f8 393e
00000280: 5b07 723e f013 463e a1fb 313e 4d42 6f3e
00000290: 1edf f13d 11f3 163e e8da 003f 97e7 b53e
000002a0: be35 983e 2ebc 833e ae92 233e 73b7 6e3e
000002b0: c1d9 403e f563 933e 950b ef3d 0923 11bd
000002c0: cc97 9d3d 5806 263e 0151 c2bd 5e91 0dbe
000002d0: d21a 393d 4021 b63e 45a3 b53e 986b 053e
000002e0: de63 903e 632e 9c3e a2d7 a43e 7086 033f
000002f0: df2d 0cbe b788 753e fdcc 113f 5a4a 6a3e
00000300: 0e12 613e 5f46 a93e 8755 9f3e 8967 833e
00000310: 85f9 4a3e 9b84 603d 0d4d 253e e80f fe3d
00000320: 6641 d53e bf57 ab3e 35b1 673e fdbd 103e
00000330: 7c31 973e e5cd 7e3c e958 e63d ca9c 9d3d
00000340: 2a3a 4d3e b4b3 fb3d c40a 37bd 83c0 cb3d
00000350: 2615 533e 58ee 883e fe42 8e3e 644d b33e
00000360: 6c74 ba3e e16d d23e a0b2 493e 88c5 953e
00000370: 0dcc 3f3e ac80 be3e bf3a 0dbd 5b9f 1e3e
00000380: b49f 923e 91c6 ed3d 5b71 8f3e 53b9 68bd
00000390: 729a 933e 7554 a23e bf51 a13e 3b55 d33e
000003a0: dc19 983e 7425 9e3e 2587 45bd 2571 513d
000003b0: 6b95 2c3e 5059 733e 9212 e13d e84d 273d
000003c0: 01b6 1e3e 5312 4abd e5fe ea3d 7064 333e
000003d0: 64af b83e 4842 893e 8261 443e ba0b c73e
000003e0: 266e c63e 7c68 9c3e 0242 503d 515d 023f
000003f0: e184 0a3e c066 88bd 927a 2c3d cca5 e93d
-0.26067406 -0.38986248 -0.024359548 0.03050573 0.038013443 0.021218244 0.13801935 -0.04042951
-0.13946958 0.042459916 -0.023588317 0.14381306 0.2143886 0.17087764 0.05786431 0.08376127
0.26188764 0.22973183 0.051067475 0.030640712 0.24291667 0.032777846 0.21085578 -0.09473961
0.07953424 -0.08288252 -0.06186857 -0.12386291 0.010326832 -0.09541522 0.27761737 0.0783913
0.18941447 0.15515845 0.012149466 -0.033337656 0.28709117 0.15789457 -0.11834118 0.042687345
0.23027855 0.2908143 0.3558898 0.21662897 0.16892965 0.28331554 0.31926382 0.18682297
0.4369204 0.19583386 0.32597974 0.37407628 0.12692086 0.26001623 0.053341173 -0.032390423
-0.0052271583 0.0755239 0.07948843 0.08057166 0.07371594 0.10185733 0.055248994 0.18545802
0.10458608 0.048050076 0.30044365 0.28045556 0.078607835 0.42417547 0.16704702 0.18598379
0.33702663 0.2383157 0.1994826 0.17055562 0.26547015 0.16344418 0.53005344 0.21385
0.385266 0.66314894 0.30163264 0.190922 0.28344366 0.16362652 0.20442119 0.1579537
0.01874083 0.113006115 0.015860498 0.14040384 0.13383819 0.22398847 0.07157278 0.017672706
0.104906596 0.33896542 0.24724327 0.17685011 0.23825783 0.25997272 0.1648525 0.2853916
0.09276635 0.31621757 0.05868545 0.23089953 0.20680901 0.3281511 0.32063794 0.36840776
0.41707468 0.21311393 0.26819423 -0.058318797 -0.09820422 -0.13763727 0.07466809 0.24690017
0.07504437 0.2178622 0.35542312 0.37887973 0.19919796 0.19079481 0.08275357 0.44183087
0.22233735 0.18466797 0.23601006 0.14873031 0.031038934 0.10525677 0.19134046 0.115136854
0.3947457 0.4991568 0.31943908 0.058537778 0.1480705 0.08457101 0.26644346 -0.05134885
0.16366053 0.0014909169 0.07603219 0.20633234 -0.06399883 0.33089286 0.1495761 0.15657273
0.11753321 0.3594283 0.5592199 0.17215213 0.19282733 0.46034157 0.114459366 0.18161066
0.23635618 0.19343543 0.17381145 0.23365135 0.11810134 0.1474116 0.50334024 0.35528252
0.29728502 0.25729507 0.15973923 0.23312168 0.18833067 0.287872 0.11672131 -0.035433803
0.076949686 0.16213357 -0.094881065 -0.13824984 0.045191593 0.35572243 0.35476127 0.13029325
0.28201193 0.3050414 0.32195765 0.5137701 -0.13689373 0.23977934 0.5695341 0.22879925
0.21979544 0.330615 0.3111994 0.2566493 0.19821747 0.054813962 0.16142674 0.124053776
0.41651458 0.33465382 0.22626193 0.14134975 0.2952994 0.015552019 0.11247427 0.07695921
0.20041719 0.12290135 -0.044688 0.09948828 0.20613536 0.26744342 0.27785486 0.35019982
0.36416948 0.41099456 0.19697046 0.29252267 0.18730183 0.37207544 -0.034479853 0.15490477
0.2863747 0.11610139 0.2801617 -0.056817364 0.2882877 0.3170506 0.3150768 0.41275963
0.2970723 0.3088795 -0.048224587 0.051133294 0.16853873 0.23764539 0.1098987 0.04084578
0.15499116 -0.04933388 0.114743985 0.17518783 0.36071312 0.2680838 0.19177821 0.38876134
0.38755912 0.30548465 0.0508442 0.5092364 0.13527252 -0.06660223 0.04210908 0.11408576

linear_in.bias f4 [64]
00000000: 9940 93c1 852c 9b41 7c11 9b41 5935 93c1
00000010: c46d 93c1 746e 93c1 a10e 93c1 5a25 9c41
00000020: a767 9a41 5950 8f41 8627 9b41 220d 9c41
00000030: cf31 9b41 745a 9b41 9825 9c41 6804 9b41
00000040: a2e8 9b41 983f 93c1 7412 93c1 d537 93c1
00000050: 0145 9c41 9725 93c1 4109 9b41 855e 9b41
00000060: cbcb 9a41 e3ad 9b41 ba24 93c1 6467 843f
00000070: 750d 9b41 75ed 9441 2910 93c1 ac0f 9b41
00000080: 4b84 9c41 0f02 9c41 49af 9b41 63d9 9a41
00000090: 0463 93c1 bde5 9a41 8d42 9b41 fe6e 8d41
000000a0: 9613 93c1 93a4 9a41 24af 893f ff61 93c1
000000b0: 5365 93c1 a86f 9b41 4f02 9b41 3d84 9a41
000000c0: f301 93c1 c1ec 9a41 4a0f 9b41 f17f 9b41
000000d0: 2070 8841 ab1b 93c1 cbef 92c1 a01f 9c41
000000e0: 77a0 9b41 0e60 93c1 3492 9a41 aae4 9a41
000000f0: cb13 9c41 2efb 9b41 85fb 9a41 a62d 93c1
-18.406542 19.396738 19.383537 -18.401049 -18.428596 -18.428932 -18.382143 19.518238
19.300611 17.914232 19.394299 19.506413 19.39932 19.419167 19.518356 19.377151
19.48859 -18.406052 -18.38401 -18.402262 19.533693 -18.393354 19.379519 19.421152
19.349508 19.459906 -18.392933 1.0344052 19.38157 18.615946 -18.38289 19.382652
19.564596 19.501005 19.460588 19.356146 -18.423347 19.362177 19.407495 17.679195
-18.384563 19.330359 1.0756574 -18.42285 -18.424475 19.42952 19.376127 19.31457
-18.375952 19.365602 19.382465 19.437471 17.054749 -18.38851 -18.367086 19.515442
19.453352 -18.421902 19.321388 19.361652 19.509665 19.497646 19.372812 -18.39729

state_value.weight f4 [1, 64]
00000000: d5b4 1f40 cb3a 11c0 e0df 1dc0 0198 2540
00000010: 63bd 2040 7f40 2040 e1fb 2340 3e5b fcbf
00000020: f52a 49c0 db4c d4c0 b5ba 15c0 55d7 eebf
00000030: 0f26 10c0 ff09 10c0 a232 e6bf a61f 24c0
00000040: dc94 f6bf b988 2240 5193 2040 3ec4 2040
00000050: 9d4f f6bf 3827 2140 89c2 11c0 54a1 13c0
00000060: 4c25 23c0 cabe 09c0 886a 2140 60b1 71bf
00000070: 875b 18c0 47e2 c9c0 b5e7 2240 1103 0cc0
00000080: cfa8 ecbf 85c3 f4bf dca2 01c0 e877 25c0
00000090: ea61 2540 8ae4 1ec0 254f 0bc0 db21 e0c0
000000a0: 1a3b 1d40 5929 23c0 5980 72bf e2b1 2240
000000b0: fa76 2140 48d5 14c0 ece4 11c0 6000 24c0
000000c0: 4a36 2640 2705 22c0 83d3 1bc0 735e 0ec0
000000d0: 1c37 4ac1 0a18 1f40 0f2e 2340 fa8a f2bf
000000e0: bf34 febf ddd4 2140 782c 28c0 1017 1fc0
000000f0: 53a1 f9bf 2d8e f7bf 9765 1cc0 0ee5 1e40
2.495412 -2.2692134 -2.4667892 2.5874026 2.5115592 2.5039365 2.5622485 -1.9715345
-3.143247 -6.634382 -2.3395207 -1.8659464 -2.252323 -2.25061 -1.7984202 -2.5644317
-1.9264178 2.539595 2.5089915 2.5119777 -1.9243046 2.5180187 -2.2774985 -2.3067217
-2.5491514 -2.1522698 2.5221272 -0.9441128 -2.3805864 -6.3088717 2.5453923 -2.1876872
-1.8489016 -1.9122168 -2.0255651 -2.5854435 2.5841012 -2.482699 -2.1767056 -7.0041327
2.4567323 -2.5493987 -0.94727093 2.542107 2.5228868 -2.3255177 -2.2795973 -2.562523
2.5970635 -2.5315645 -2.4347847 -2.2245147 -12.638454 2.4858422 2.5496862 -1.8948662
-1.9859847 2.5286171 -2.6277142 -2.4857826 -1.9502357 -1.9340264 -2.4437006 2.4827304
