rl_trainer/models/olympics-curling/run1/trained_model/actor_1500.pth (torch, 241503 bytes, 4 tensors)

linear_in.weight f4 [64, 900]
00000000: 92a6 c6bd e020 38be caa7 f1bd 43bc b2bd
00000010: 6191 a1bc 4daf c9ba d31c a2bc 6c38 0abd
00000020: 77b7 ecbd c1ff f3bc c896 9a3c 04d0 72bc
00000030: 1a70 793a b736 bebb 7c5b 3abd 7e1d 8bbd
00000040: 4e3f 843c 2c57 3a3d 84e5 783d 854e f53b
00000050: e64b 57bd 8ae2 fbbc 53fd 5e3d 7137 8dbc
00000060: 868e 44bb 5e4e 84bc 75bd 023c 7842 f83a
00000070: 8b93 2abd 564a 143d 9d81 86bc e422 73bd
00000080: 0299 f3bc 9770 bbbd 10e8 bebd 1dd2 eebd
00000090: a97a 9dbd 5df5 4abd fd44 0cbd ce1a 0bbd
000000a0: 92cc 933d 1f41 a83c a477 653d 9b8b 02bd
000000b0: 0cda c3bb 07ee 433d 765e 5d3d e4ac 9e3c
000000c0: a587 81bd 8f2c 90bd 6e05 cdbd 4bec 5cbd
000000d0: f718 46bc 319b 633c 5122 06bd 4411 80bc
000000e0: d106 e93c 1609 8ebd 68f0 e4bc e4c6 a4bb
000000f0: 8618 f6bd 4e44 f7bc fb09 21bd 5672 483d
00000100: a38e 8ebd 9ccb 00be b5f8 bebd fe64 4dbd
00000110: 708b 7abd 9ee9 9ebd 2704 29bd dc3f 9bbc
00000120: bb86 c43c 5744 873d 8fa0 4c3d 2d7e d33d
00000130: 26ef ad3d 871a 213d 7c07 cdbd 1763 f2bb
00000140: 79e9 cbba f405 e0bc 6d4e 4ebd 3f6f 80bd
00000150: 5bad 89bc 1630 2e3c b9b0 513d f96d fa3c
00000160: 7a45 e4bc 3139 8ebd adf1 b4bd 1b75 c8bd
00000170: 2d89 1d3c 2f8f 4cbc 6d97 b3bd c675 abbd
00000180: 0ca8 dcbd 2555 37bd dddb 71bc 8336 a9bc
00000190: 5fe9 f4bc d603 18bd 78cd a1bc 8a24 813b
000001a0: 0ec4 2dbd 98c6 d8bb 9c3f 263d 96d9 febc
000001b0: af31 20bd cffc 00bd b110 9b3b 0eed 4c3d
000001c0: 0acc a93c ec5a c2bc c3e3 553d a6ed e73d
000001d0: 5a6a 173e 3b9a 863d dc03 9fbd b5e5 88bd
000001e0: e733 84bd d8cf 4ebd ffd4 00bd d9d0 c8bd
000001f0: 7fec 8fbd 0c43 f7bd d4e8 3cbe 42c0 97bd
00000200: 871b ec3c 4418 cb3a 919e 53bd 1d77 9ebb
00000210: 9123 07bd f3a1 4e3d 9352 de3c a95a c6bb
00000220: ff6e 2a3c c577 183d e50e 91bb 9022 a8bc
00000230: 4e7a 2dbd 20cf 21bd e81d a6bd 7472 483c
00000240: 4bf7 a83d b2b2 8f3d 100a e43d 8a73 893d
00000250: 8b0d cbbc bede b1bc 9517 e0bc b1ef 2f3d
00000260: 6005 58bd 5254 72bd 504c 95bd 972e c8bd
00000270: 2d89 03be 190d a1bd 1b10 8fbd 8e02 30bd
00000280: b9a8 84bc 22ea 173d 59c6 c2bb fede 04bb
00000290: 3bb9 a1ba 4780 12bc 91f7 a6bc 0c14 e93c
000002a0: 8123 cd3a c7bc 00bd 9d84 d6bd 2517 7fbd
000002b0: dd0e 5e3c 7573 b53c 425b 983d 3a9e c63d
000002c0: 8bd1 d33d d5f3 d53d c54c a9bc 01c4 85bd
000002d0: 567f 1cbc 875d c4bd 1012 87bd da25 9abd
000002e0: c9a7 40bd f846 6ebc fdab 24be 9ce4 bebd
000002f0: 75e0 94bd 8ea0 7abd 5117 913d 4686 f0bc
00000300: 22e2 98bd acec 0ebd 5d4a 603d 8849 c9bc
00000310: bad9 4a3d dceb 933d eb17 a83d 1b39 a1bc
00000320: 2270 9abd f752 cbbd b70b 313d 05a8 ee3c
00000330: adc6 e33c e8a7 80ba 926a 563c e9b5 ce3c
00000340: 78d2 8f3c 82f5 13bc 9543 27bc 578c eabd
00000350: b180 0bbe 02b4 40bd b6ef 863d f09e 0e3d
00000360: ee0f 293d a742 9cbd b29d 54bd 20b1 c23c
00000370: 39f5 0e3d 8961 553c c1de f3bc b791 52bd
00000380: 7bb7 24bd 591e 5ebb 8599 a73d f2bf 013e
00000390: d32f 853d 0048 fe3c c634 dcbd 236d a3bd
000003a0: 08fd b63c 6bfa 4d3c 4378 21bd b4e6 e7bc
000003b0: a0e6 22bb ebd1 a13d 4bd8 b03c 7fc1 2f3c
000003c0: 50ae e4bd 7f4a 0dbe 6fd9 46bc cfa1 333d
000003d0: f712 acbc 78b1 5bbd 93e1 10be 3222 21bd
000003e0: 1c60 78bb ace0 033e 6184 c33d c0fb a23b
000003f0: 9b64 743d 4979 54ba 30d4 65bd 73eb 58bb
-0.096997395 -0.17981291 -0.11799581 -0.08727314 -0.019722642 -0.0015387327 -0.019789135 -0.033745214
-0.11558431 -0.029785039 0.018870726 -0.014820103 0.00095153006 -0.0058048624 -0.045497403 -0.067927346
0.016143467 0.04549329 0.06076576 0.007486167 -0.052562617 -0.03074767 0.054440808 -0.01723835
-0.0029992177 -0.01615065 0.00797974 0.0018940708 -0.041644614 0.036203705 -0.016419226 -0.059359446
-0.029736046 -0.09152334 -0.09321606 -0.1166117 -0.07689411 -0.049550403 -0.03424548 -0.03396111
0.07216753 0.020538865 0.0560223 -0.03187142 -0.005976921 0.047834422 0.054045163 0.01936955
-0.063247 -0.07039749 -0.10010801 -0.053936284 -0.012090913 0.013891981 -0.03274757 -0.015633233
0.028445633 -0.06935327 -0.027946666 -0.0050285924 -0.12016396 -0.030183937 -0.03931616 0.048937164
-0.069607995 -0.12577671 -0.09324781 -0.05014514 -0.061168134 -0.07759403 -0.041263726 -0.018951349
0.023990026 0.06604832 0.049957808 0.103268005 0.084928796 0.03933194 -0.10011193 -0.0073970663
-0.0015557251 -0.027346589 -0.05036776 -0.062712185 -0.016806295 0.010631582 0.051193926 0.030570017
-0.02786516 -0.06944502 -0.088351585 -0.09787961 0.009615225 -0.0124853095 -0.087691166 -0.08372073
-0.1077424 -0.044758935 -0.014761892 -0.020655876 -0.029896436 -0.037113033 -0.019751295 0.0039411234
-0.0424233 -0.006615471 0.040588006 -0.031109612 -0.039109882 -0.031491097 0.0047322144 0.05003076
0.020727176 -0.023724996 0.052219164 0.11324625 0.14786664 0.06572386 -0.07764408 -0.06684438
-0.06455212 -0.050491184 -0.03145313 -0.098054595 -0.0702753 -0.12073335 -0.18448192 -0.07409717
0.02882172 0.0015494903 -0.051664893 -0.0048359768 -0.032992903 0.050447416 0.027138984 -0.006053288
0.01040244 0.037223596 -0.0044268244 -0.020524293 -0.042352967 -0.03950417 -0.08111173 0.012234319
0.082502924 0.07016505 0.11134732 0.067114905 -0.024786731 -0.021712657 -0.027354995 0.042953197
-0.0527395 -0.059162445 -0.07289946 -0.09774511 -0.12845297 -0.07863826 -0.06985494 -0.042971186
-0.016193734 0.03708852 -0.005944055 -0.0020274515 -0.0012338528 -0.0089417165 -0.02038172 0.028451942
0.001565084 -0.031430032 -0.10474513 -0.06227793 0.013553348 0.02214978 0.07439281 0.09698148
0.103427015 0.10446898 -0.02066649 -0.065315254 -0.009551844 -0.095881514 -0.06595242 -0.07526751
-0.047035012 -0.014543287 -0.16081233 -0.093209475 -0.07269374 -0.061188273 0.070845254 -0.029360902
-0.074650064 -0.034893677 0.05475842 -0.024571195 0.049524046 0.07222721 0.08207687 -0.01968055
-0.07540919 -0.09927934 0.043224063 0.029132852 0.027804697 -0.0009815665 0.013086932 0.025233226
0.017556414 -0.009030702 -0.010208984 -0.11452549 -0.1362331 -0.04704667 0.0658869 0.034819543
0.041274957 -0.076299004 -0.051908202 0.0237661 0.03490183 0.0130237425 -0.029769303 -0.051408496
-0.040214043 -0.00338926 0.081835784 0.12670878 0.06503262 0.031040192 -0.10752253 -0.079798006
0.022337452 0.012571911 -0.03942133 -0.02830825 -0.0024856701 0.07901367 0.021587512 0.010727285
-0.1116606 -0.13797949 -0.012136801 0.043855485 -0.021005137 -0.053636044 -0.1414855 -0.03933925
-0.0037899083 0.12878674 0.09546734 0.0049738586 0.059666257 -0.0008105231 -0.05611056 -0.0033099323

linear_in.bias f4 [64]
00000000: f517 073d 2cbe a0bb 5a66 9d3d c704 4c3d
00000010: bdaa a1bc 97e9 613c f342 8dbc 3e5e 0cbc
00000020: 4258 44bd ba52 f13a 345a 02bd 3d4f 63bd
00000030: 6838 d7bc ea1a d63b 520c d1bc 75d4 22bc
00000040: d107 1cbc efc3 bbbc ef8b 1dbd f7a0 063d
00000050: eded 853c 11d5 89bd ba4e 0a3d 5d81 3d3d
00000060: da69 28bc 9f4d a9bd f4c8 473b c8f6 58bd
00000070: c859 bebd 8e5a ddbb 9fcf 96bb d9d4 74bc
00000080: 8180 f2bc b273 e2bc a830 debc 422e 8a3c
00000090: a38f ce3c 022c 27bd 3799 38bd 970c 98bc
000000a0: 70d2 6bbd f40c 53bd 6465 65bd b6ed 163d
000000b0: 82b4 86bc d5a2 333d 70d7 17bd 0bb5 83bc
000000c0: 2f1b 86bd a198 433d a8dd 98bd 4750 5cbc
000000d0: 7173 ce3c 5c2b 763c 03d0 58bd 85b7 d8bc
000000e0: a1b6 febc b380 18bd f2e2 1bbc b6f2 dc3c
000000f0: ca48 3bbd bb6d 32bd 3210 6bbc 2418 8c3c
0.03298183 -0.0049054828 0.07685538 0.049809244 -0.019734735 0.013788602 -0.017243838 -0.008567391
-0.04793573 0.0018411495 -0.031824306 -0.05549549 -0.026272014 0.00653397 -0.02551857 -0.009938349
-0.009523348 -0.022920577 -0.03846353 0.03286835 0.016348803 -0.06730092 0.033766486 0.04626595
-0.010279143 -0.08266758 0.0030484768 -0.052969724 -0.09294468 -0.0067551797 -0.004602387 -0.014943325
-0.029602291 -0.027643058 -0.02712281 0.01686776 0.025214976 -0.040813453 -0.045067992 -0.01856069
-0.057573736 -0.051526025 -0.056004897 0.036847793 -0.016443495 0.04385646 -0.03707069 -0.016077539
-0.065481536 0.04775298 -0.074641526 -0.013446874 0.025201531 0.015024986 -0.05293275 -0.026454696
-0.031092944 -0.037232112 -0.009514557 0.026971202 -0.045723714 -0.04356168 -0.014347123 0.017101355

action_head.weight f4 [36, 64]
00000000: 8de0 e53c 498f c23d 910f d83d 050c 5d3a
00000010: 05fe 8a3d f14e 8e3d 1f89 833d fb73 27be
00000020: b0e9 a03d 2a64 643d 08bb 2f3d c58b 97bd
00000030: ed53 3a3e 22f7 c13d faff 7f3d f9bc 47bd
00000040: fcd8 04be 90e3 483d 4b30 8c3d 2419 443d
00000050: e8b9 9c3d 2981 3f3e 2773 00bd 508c 343e
00000060: 0686 25be 9473 063e e472 083e 637f 0c3e
00000070: 1c30 6c3e de79 c5bc 8fb0 033e 00dd 9ebd
00000080: a1a2 023e b46b 0e3e 76ad 443e cbc2 323e
00000090: 5fd7 cf3c 9bbf 523e c16f 593e 4cb6 cdbd
000000a0: 0e9a 153e 6f59 c03d b08a 0dbe 932d 2d3e
000000b0: 8d6c d0bd 631a 423d e739 683e c4ef 2c3e
000000c0: 9231 b73d 9f15 00bd 9f7c 313d 5e17 073d
000000d0: 91b2 b4bd 5fe5 aa3d 877b 223e 3aa0 15be
000000e0: 5b64 973d 1137 a93c 7ae7 42be 18fd 803d
000000f0: af59 1bbd 90c3 5f3e 7b25 b3bd 06b3 fc3d
00000100: c77c a23d 3096 8cbd 02ce 913e 1077 bb3d
00000110: 5a9d cb3d 569e dd3b 9bf5 123e 4e0b 813d
00000120: f21b ff3d 3526 92bd 3c3a 073e 22f2 e03c
00000130: d913 123d a357 4c3d 79c9 aebb bf18 bb3d
00000140: 93cd 203d 0975 8b3d 5b21 9e3d ab6d 04be
00000150: d969 f93d a960 4c3e c71e 973b 05e5 b43d
00000160: c969 763e 1aa4 eb3d 48a2 463e 49b8 8a3e
00000170: d364 7d3e 9c60 213e 6a9a d7bd f6d1 933c
00000180: 534f e33d b297 dfbc dd4d 5e3e 28e4 113e
00000190: 2b9c 9d3d 5286 dc3d 1b0e e63d c8ee 1f3e
000001a0: 2aac 39bd fb96 f13c 1cbd febc 1d3d 9b3b
000001b0: 8d44 003e bb9d 2abd aef5 833e 0e3b ce3d
000001c0: c50e d03d 4f0a 393e bc36 0f3d d685 d23d
000001d0: fdf5 693e 9de1 103e e952 f73c efda c83d
000001e0: dc48 f039 57d1 153d 3ec7 433e 8e2b d73c
000001f0: 5571 d33d 6db8 363d ed76 233e 2b95 6dbd
00000200: fd30 3439 648f 003e 65da 653e 040d 383e
00000210: a50c 08bc 4b15 5e3d 8935 813d 75a1 a9bc
00000220: a5e8 c23c 6d9c 533e 0492 b53e 0a8f 01bd
00000230: 17d9 db3d d6c2 043e f4cc ea3d 2014 ffbd
00000240: b7db b63d 1613 9e3d 238f 1f3d 1211 b53d
00000250: 7eb8 18bd 117b 2f3d 4dcd ad3c fe72 1d3d
00000260: a5ca 593d 4cc0 6739 56b1 853e 9be9 6e3e
00000270: 51ce 9c3e 7ab4 863c cffa c1b8 6e0a 493e
00000280: a241 3a3e 48a9 193e 7797 a0bb 4bf8 473c
00000290: 7cbc 2d3e 4021 273e da7e 3e3e 7d35 b53d
000002a0: 1feb 823d 4e0c 6c3d 04dd 0d3e a621 f53d
000002b0: 2c44 29bd 31b4 fc3d a48c 373d ef5a 083e
000002c0: 487b 963d c8ca 763e 814d e3bc 078b 40bd
000002d0: bb59 9d3e 7f1a 663d d731 23bc f407 1e3e
000002e0: 92f0 e33d d2f3 583c 79bf 243e 2e2a 8a3d
000002f0: 0f34 2f3d 0ce0 25bd 9588 7fbc 644e ba3c
00000300: c94c 093d a892 323e 668c 473e dc42 8ebd
00000310: a79b ec3c 2fc4 35bd 435f b2bb 27e4 9e3d
00000320: 0bcc 0c3d 6a0c 4e3d 4c4c 0d3e 4626 b8bd
00000330: ff9c 93bd 9632 c53d 526a 653d 03e3 ca3d
00000340: 05d3 e1bd ccc4 443e 6dc5 32bb d0d5 033e
00000350: 2a48 893e e3b1 17bd 5fba 703c 4367 a8bb
00000360: 9060 f63d ad61 d0bd 8b06 ddbd 878e 503e
00000370: 3d96 023d 9b96 b7bd 59d7 313e 2795 963d
00000380: 6ce2 1a3e 0571 80bd c269 33bc eded fa3d
00000390: 23a6 0d3e d5d0 75bd d73e f73d f3ba fcbc
000003a0: 7f08 82bd e8d1 f53d 0b55 433e a354 553e
000003b0: 6709 25bd 9fec d03d 3b39 bd3d cd75 483e
000003c0: c1d3 7b3d 24d8 253e 2eb8 613e 4eae 2ebd
000003d0: 68e7 3e3e dbe6 113e 9b5c 583e b9be 36bb
000003e0: 7dc1 4c3e 7ae7 be3d 5793 083e 93fc ca3d
000003f0: b2fc 42bd b4ec b8bd 964b 373e 0d82 683d
0.028061176 0.09499986 0.10549844 0.0008432272 0.06786732 0.06948651 0.06422638 -0.16352837
0.07857072 0.055759586 0.042902976 -0.07399706 0.18196078 0.09470965 0.062499978 -0.048764203
-0.12973398 0.049045146 0.06845149 0.04787554 0.07652646 0.18701614 -0.031359818 0.1763165
-0.16164407 0.13130027 0.13325077 0.13720469 0.23065227 -0.024105962 0.1286032 -0.07756996
0.1275735 0.13908273 0.19206795 0.1745712 0.025371252 0.20580904 0.21234037 -0.10044536
0.14609548 0.09392058 -0.13822436 0.16911916 -0.101769544 0.047388446 0.22678338 0.16888338
0.08945002 -0.03127062 0.04333174 0.03298127 -0.08823121 0.0834453 0.15867434 -0.14611903
0.07392188 0.02065614 -0.19033614 0.06298274 -0.037927326 0.21851945 -0.08747383 0.123388335
0.07933956 -0.068645835 0.28477484 0.09153569 0.09942122 0.00676326 0.14351504 0.06300984
0.12456502 -0.07136194 0.13205808 0.027459208 0.03566346 0.049888264 -0.005334076 0.09135579
0.03925855 0.06809432 0.07721206 -0.1293246 0.12178392 0.19958748 0.0046118232 0.088327445
0.24063791 0.11505909 0.19397843 0.27093723 0.24745493 0.1575951 -0.10527499 0.018044453
0.11099114 -0.027294014 0.2170939 0.14247191 0.07695802 0.10767807 0.11233159 0.15618432
-0.045330204 0.029490938 -0.031096034 0.00473751 0.1252615 -0.04165433 0.25773376 0.100698575
0.10159067 0.18070339 0.03496431 0.102794334 0.22847743 0.14148565 0.030190902 0.09807383
0.00045830652 0.036576595 0.19118974 0.026265886 0.10324351 0.044609476 0.15963335 -0.058003586
0.00017184387 0.12554699 0.22446592 0.17973715 -0.008303796 0.054219525 0.06309039 -0.020706872
0.023792574 0.2066514 0.35462964 -0.031630553 0.10734766 0.12964949 0.11464873 -0.124550104
0.08928626 0.07718484 0.038954865 0.088411465 -0.03728532 0.042841975 0.02121606 0.038439743
0.053171773 0.00022101513 0.2611186 0.23331301 0.30626157 0.01644348 -9.249674e-05 0.19632885
0.181891 0.15005982 -0.0049008685 0.012205194 0.16966432 0.16321278 0.18603078 0.08848093
0.06392502 0.057628922 0.13853842 0.119693086 -0.04132478 0.12339056 0.04481186 0.13315938
0.07347733 0.24100792 -0.027746918 -0.047007587 0.3073252 0.056177612 -0.009960613 0.15432721
0.111298695 0.013241725 0.16088666 0.067463264 0.042774256 -0.04049687 -0.015596529 0.022742458
0.033520494 0.17438757 0.19487152 -0.06946346 0.028882815 -0.04437655 -0.005443485 0.0775836
0.034374278 0.050304808 0.13798636 -0.08991675 -0.07207679 0.09628789 0.056009598 0.0990658
-0.11026577 0.19215697 -0.002727832 0.12874532 0.2681287 -0.03703488 0.014692872 -0.005139263
0.120301366 -0.1017488 -0.107922636 0.2036687 0.03188156 -0.089642726 0.17367305 0.07352667
0.15125436 -0.06271557 -0.010950508 0.12252412 0.13832907 -0.06001361 0.120725326 -0.030850863
-0.06349277 0.12002927 0.1907541 0.20833068 -0.04029217 0.10201382 0.092394315 0.19576187
0.06148124 0.16195732 0.22042915 -0.0426467 0.18642962 0.1424822 0.21129076 -0.0027884676
0.19995685 0.093214944 0.13337456 0.09911456 -0.04760427 -0.090295225 0.17899927 0.05676465

action_head.bias f4 [36]
00000000: 122c ce3d 2973 0d3e 5f8c bdbb 4118 023d
00000010: 929f fd3c bff9 843d 21fc 4dbd c097 823e
00000020: ef52 223d 45cf 7a3d 5f6d 71bd 4c56 543d
00000030: dbe0 553d 2e99 aa3c 5bf0 073e 073a d73a
00000040: b958 d73d 1742 7e3e 567e 913d a27b 3b3c
00000050: 7f31 1dba bfb4 7e3c 7437 f73c 4d08 673e
00000060: 149b e23d d207 d93c b198 123e 2e7f e53d
00000070: dcf7 b13d ea44 453e a1f6 363e 5669 493e
00000080: 8235 473e 389e c03c 604b 473e 6415 813e
0.100669995 0.13813461 -0.005784556 0.03176141 0.030959878 0.06492948 -0.050289277 0.255064
0.039629873 0.061232824 -0.058942195 0.05184011 0.052216392 0.020824995 0.13275282 0.0016420492
0.105149694 0.24829899 0.07104175 0.011443051 -0.000599645 0.015546023 0.03017781 0.2256176
0.11064735 0.026492987 0.1431606 0.11205898 0.086898535 0.1926457 0.17867519 0.19669089
0.19454005 0.023512945 0.19462347 0.25211632
