rl_trainer/models/olympics-curling/run1/trained_model/critic_1500.pth (torch, 232415 bytes, 3 tensors)

linear_in.weight f4 [64, 900]
000000 20 57 f7 be 99 32 f1 be c0 e4 06 be aa 01 a4 be
       -0.4830866 -0.47108915 -0.13173199 -0.3203252
000010 be 8b de be 02 6d 8b be 17 65 94 bd b0 ea c7 bd
       -0.4346599 -0.27231604 -0.07245844 -0.0976156
000020 89 c0 6d bd c9 c3 6d bd ca 05 d8 3d f5 84 68 be
       -0.058044944 -0.058048043 0.10547979 -0.22706969
000030 e4 bb 73 bd 94 e4 68 3e f5 c6 88 3e 89 7a 35 bb
       -0.05950536 0.22743446 0.26714292 -0.0027691445
000040 f5 6c 5b bd e3 ee cc bd ea b3 04 be b7 39 75 3c
       -0.053570706 -0.100065015 -0.12959257 0.014967374
000050 da 79 77 be aa ab 82 be e9 4f 7c be 04 5d d6 bd
       -0.24167576 -0.25521594 -0.24639858 -0.1046696
000060 8a 1c ae bd 34 a4 94 3d aa c2 50 bd 84 af 3c bc
       -0.08501537 0.07257882 -0.050966896 -0.011516456
000070 e4 d7 7b 3e a8 a8 0a bd 97 ee 36 be 73 c3 5e bd
       0.24594074 -0.03385225 -0.17864452 -0.054385614
000080 38 71 9f bd b4 e5 46 be 0d 8f 15 be 18 db 0a 3d
       -0.07785267 -0.19423562 -0.14605351 0.03390035
000090 e7 93 d5 bd fb f3 0f 3e ad a4 80 3d f0 1d 02 be
       -0.10428601 0.14057915 0.062814094 -0.12706733
0000a0 37 ec b3 3d 99 05 b1 3d f9 8b 85 3a 25 63 94 3e
       0.08785289 0.08643646 0.001018881 0.2898189
0000b0 1b f7 1d 3e 01 c2 db bb 33 15 7e bd 27 cd d6 bc
       0.15426295 -0.0067064767 -0.062031936 -0.026220871
0000c0 c6 3a 3e 3c 99 d6 61 bd ac 65 37 3c 49 a9 2c be
       0.011610692 -0.055136297 0.011193674 -0.16861452
0000d0 15 58 1a 3c 33 07 7d bd ea ea 1e be f3 24 03 3e
       0.009420414 -0.061774444 -0.155193 0.12807064
0000e0 88 f3 84 3e d8 3f 96 3e 79 93 c8 3e 54 39 84 3d
       0.2596705 0.29345584 0.39175013 0.06456247
0000f0 6e 0f 14 be 46 3a 4a be b3 fb 17 bd fc 6f b4 bd
       -0.14459011 -0.19748792 -0.037105273 -0.08810422
000100 ef ad 41 be 4f 56 8c 3e 19 94 c0 3d 75 d6 b4 3d
       -0.18914007 0.27409598 0.094032474 0.08829967
000110 71 16 b4 3d 8e ff 11 3c 99 97 59 3e 54 d0 11 3e
       0.08793343 0.008911027 0.21249236 0.14239627
000120 6d 9e f1 bc 6c 7c 89 3e d7 8b da 3c 52 ff 91 be
       -0.029494489 0.2685274 0.026678009 -0.28515106
000130 be 50 27 bd f2 0e 22 3e f9 f6 24 be ed a7 9a be
       -0.040848486 0.15826014 -0.16109838 -0.30206242
000140 d3 a1 67 bd 7a 78 70 3e 48 14 d8 3d 2a 10 84 be
       -0.056550812 0.23483458 0.10550743 -0.25793582
000150 c5 b5 87 be dc 44 83 bc 3b 93 8b 3e d2 3e 53 3e
       -0.26505867 -0.016024046 0.27260765 0.20629433
000160 b3 d7 bf 3e 0f fb a4 bd ef 74 83 be 75 c5 75 be
       0.37469253 -0.08055698 -0.2567515 -0.24001105
000170 27 30 2f 3d 7c 7e 76 bc c8 12 8a 3d 5f ee 8b 3e
       0.04277053 -0.015044805 0.067418635 0.273303
000180 f7 ee 5e 3e 67 4b 32 3c 82 37 a2 3e 7e d0 b3 3e
       0.21770845 0.010882235 0.31682974 0.35120004
000190 71 cd f7 3e 72 4b 2b 3e a0 65 2a 3d b5 dd aa 3e
       0.48398927 0.16727999 0.041600823 0.33372274
0001a0 83 27 1a bd 0c 26 c2 bc 4f a9 d2 3d 91 b3 8f 3e
       -0.037635338 -0.023699783 0.10286199 0.28066686
0001b0 75 43 00 3d 93 2b 90 be ee bc b4 3d 13 ee 2a 3e
       0.031314332 -0.28158244 0.08825098 0.1669238
0001c0 c4 32 43 3d 5c 58 41 3e c7 96 a9 3d d6 cd da bd
       0.047655836 0.18881363 0.082807116 -0.10683791
0001d0 5d 5e 79 3d f4 3a d6 bd 79 45 3e bc 07 6b f9 bc
       0.060881007 -0.10460463 -0.011613243 -0.030446542
0001e0 39 32 99 be 93 46 0e be 40 23 9d 3d 2e 08 a1 3d
       -0.2992113 -0.1389411 0.07672739 0.07862888
0001f0 68 6d ef 3d 08 16 88 3e da 03 e8 3d 7a d3 e6 3d
       0.116907895 0.26579309 0.113288596 0.11270805
000200 80 18 ae 3e 47 03 cd 3e f8 45 d0 3e 5a 2d 15 3f
       0.34003067 0.40041563 0.40678382 0.58272326
000210 78 09 16 3e 38 25 8b 3e a4 0b 95 3e 9f 28 71 3e
       0.1465205 0.27176833 0.29110444 0.23550652
000220 b4 46 8f 3e e6 d4 92 3e 7a 0f 48 3e ca 81 eb 3d
       0.2798363 0.28678054 0.19537154 0.11499365
000230 2c b4 b1 3c 42 9c be bc 14 13 24 3c af 61 3d 3e
       0.021692358 -0.023267869 0.010014314 0.18494295
000240 ae 09 9f 3e 0c d6 bd 3e ae c5 74 bc b9 af 46 be
       0.31062073 0.37077367 -0.014939709 -0.1940297
000250 cd 56 28 bd 67 86 a2 bd ad fb 21 be 7f d5 82 be
       -0.041098405 -0.079357915 -0.15818663 -0.2555351
000260 46 0c ab 3e d3 ad e4 3d f7 40 85 3e d4 6f 25 3e
       0.334078 0.11165967 0.26026127 0.1615594
000270 d9 98 d3 3e 50 59 94 3e a9 70 04 3f b6 0f c7 3e
       0.4132755 0.2897439 0.51734406 0.38879174
000280 9f d5 cf 3e 4f 8e c0 3e 5f 20 d7 3e b4 8b 5f 3e
       0.40592667 0.37608573 0.42016885 0.21830636
000290 01 92 be 3e 42 48 e8 3e 15 6f d7 3e 08 e0 dd 3e
       0.37220767 0.45367628 0.42076936 0.43334985
0002a0 52 ea 62 3e f6 56 a9 3e 83 88 2b 3e 5d f0 19 3d
       0.22159699 0.33074158 0.16751294 0.037582744
0002b0 da 09 9b 3c 99 4b 97 3e a1 84 b5 3e c7 31 04 3f
       0.018925596 0.29549864 0.3545275 0.51638454
0002c0 7a f2 29 3e 18 89 55 be cb 5d c0 bd 7e 1e 46 3c
       0.16596404 -0.20853078 -0.093928896 0.012092231
0002d0 f3 1f ca 3c 05 4c 00 3e 94 5f d9 3e 42 e7 52 3e
       0.024673438 0.12528999 0.42455733 0.2059603
0002e0 38 a2 69 3d 48 eb 0c 3e 22 1e f1 3e bf 72 0d 3f
       0.05703947 0.13761628 0.47093302 0.55253214
0002f0 d5 6d 90 3e a4 c7 bb 3e 24 96 b0 3e a5 1d 49 3e
       0.28208795 0.3667575 0.34489548 0.19640215
000300 63 88 2b 3e 65 ee bf 3e 01 c9 f9 3d 11 39 99 3e
       0.16751246 0.37486568 0.121965416 0.2992635
000310 d4 f9 2d 3f 33 24 cb 3e 22 73 db 3e 09 9d b5 3e
       0.6795933 0.39676055 0.42861277 0.3547137
000320 82 c3 76 3e 88 90 38 3e d1 c9 e6 3b c3 25 21 3d
       0.24098018 0.18023884 0.0070431014 0.039342653
000330 dc e5 96 3e f2 7d 11 3e 96 c6 81 3e d9 57 e4 3d
       0.29472244 0.142082 0.25346822 0.11149568
000340 ea 0b 09 bd 11 c9 a8 3d fd a3 56 3e e1 ad b8 3e
       -0.033458628 0.082414754 0.20960994 0.3607016
000350 c0 87 9e 3e c2 f0 95 3e fd 6a 81 3e 1a 21 96 3e
       0.30962944 0.29285246 0.25276938 0.2932213
000360 39 17 05 3f 39 cb fc 3e 3f f4 dc 3e af ea fd 3e
       0.5198856 0.49373797 0.43155095 0.49593112
000370 36 36 b4 3e 68 df cb 3e 2c de ae 3d b4 2f a7 3d
       0.3519761 0.39818883 0.0853847 0.081633955
000380 05 e0 b5 3e 9c 1a b9 3e b2 a1 aa 3e 9d 90 88 3e
       0.35522476 0.36153114 0.3332649 0.2667283
000390 ce e0 08 3f 0b 41 4a 3e 80 cc 1f 3e b6 2f a9 3e
       0.53468025 0.19751374 0.15605354 0.33044213
0003a0 63 1b 8e 3e 5d 48 9b 3d 2c 70 a0 3e 32 07 51 3e
       0.2775527 0.075821616 0.3133558 0.20412901
0003b0 ae 1e e1 3d 23 42 a0 3d 81 4f 68 bd 10 a5 4c 3a
       0.1099218 0.078251146 -0.056716446 0.00078065787
0003c0 98 48 04 3f ef ae d3 3e 67 ad df 3e 13 e0 c8 3e
       0.5167327 0.413444 0.43686983 0.39233455
0003d0 59 f2 25 3f 96 86 0b 3f 29 28 00 3f 44 9a d0 3e
       0.6482292 0.54502237 0.5006128 0.40742695
0003e0 92 4d cb 3e 64 1c 03 3f ed 73 8f 3e 13 e2 f7 3e
       0.3970762 0.51215196 0.28018132 0.48414668
0003f0 da 75 be 3e 0e dd fc 3e 7b f6 01 3f 64 a3 d7 3e
       0.3719929 0.493874 0.50766724 0.42116845

linear_in.bias f4 [64]
000000 cc fb 06 c1 17 65 14 41 25 35 14 41 21 fe 06 c1
       -8.436474 9.27468 9.262975 -8.437043
000010 3a dc 06 c1 88 0c 07 c1 48 c5 06 c1 d8 6a 16 41
       -8.428766 -8.440559 -8.423164 9.401085
000020 6e 92 ce 3f 47 11 ca 3f bd 35 14 41 e8 41 16 41
       1.6138437 1.5786523 9.26312 9.39109
000030 cd 72 14 41 fd bd 14 41 07 81 16 41 fa e7 13 41
       9.278028 9.296384 9.406501 9.244135
000040 d0 fa 15 41 51 eb 06 c1 84 87 06 c1 36 18 07 c1
       9.3737335 -8.43245 -8.408085 -8.443411
000050 db aa 16 41 19 e8 06 c1 22 49 14 41 6f df 14 41
       9.416713 -8.431664 9.267855 9.304549
000060 07 8b 13 41 ea 6a 15 41 4b 14 07 c1 ce 45 c6 3f
       9.221442 9.338602 -8.442454 1.5490053
000070 2a f1 13 41 9e a4 ca 3f 92 98 06 c1 d9 71 15 41
       9.246378 1.5831487 -8.412249 9.340295
000080 a2 38 17 41 92 27 16 41 bf 81 15 41 c4 c0 13 41
       9.451326 9.384661 9.344176 9.234562
000090 07 12 07 c1 a2 dd 13 41 26 71 14 41 ac 68 12 41
       -8.441901 9.24161 9.277624 9.150555
0000a0 a0 84 05 c1 23 17 13 41 f0 ec cc 3f 56 18 07 c1
       -8.344879 9.193149 1.6009808 -8.443441
0000b0 b5 e7 06 c1 d4 d0 14 41 91 25 14 41 62 f0 12 41
       -8.431569 9.300983 9.2591715 9.183687
0000c0 d4 b6 06 c1 ff e0 13 41 09 34 14 41 cd 4f 14 41
       -8.419636 9.242431 9.262704 9.269483
0000d0 05 c6 06 c1 c1 d1 05 c1 a1 77 06 c1 e8 61 16 41
       -8.423345 -8.363709 -8.404206 9.398903
0000e0 81 59 15 41 2c ff 06 c1 26 0f 13 41 7c a7 13 41
       9.334352 -8.437298 9.191198 9.22839
0000f0 6c 41 16 41 48 18 16 41 92 ea 13 41 08 61 06 c1
       9.390972 9.380928 9.244768 -8.398689

state_value.weight f4 [1, 64]
000000 2e 1d f1 3f 40 bb a6 bf 99 15 b2 bf 73 ff f8 3f
       1.883703 -1.3025894 -1.3912841 1.9452957
000010 dd bd ee 3f cf 5f f0 3f 69 98 f4 3f 16 bc 90 bf
       1.8651692 1.8779238 1.9109012 -1.1307399
000020 d7 1f d2 bf 2e a1 cb bf 03 8d aa bf 1b 80 89 bf
       -1.6415967 -1.5908563 -1.3324283 -1.074222
000030 7e 6a a5 bf 77 5a a5 bf 59 b2 83 bf 27 2b ba bf
       -1.2923124 -1.2918233 -1.0288802 -1.4544419
000040 75 e2 8d bf 11 d5 ed 3f 8a cc f0 3f 36 30 f0 3f
       -1.1084734 1.8580648 1.881242 1.8764713
000050 de 4d 8d bf 24 8c f1 3f 92 9a a5 bf e4 31 a7 bf
       -1.1039388 1.8870893 -1.2937796 -1.30621
000060 b0 65 b8 bf 29 05 9d bf c9 b0 f1 3f 3e ef cb bf
       -1.4406033 -1.22672 1.8882076 -1.5932386
000070 8d e1 ae bf 6e c0 cc bf 09 0c f3 3f c7 cb 8b bf
       -1.3662583 -1.5996225 1.8988048 -1.0921563
000080 f9 cc 87 bf f6 a1 8c bf 42 7c 95 bf 9e 5c ba bf
       -1.0609428 -1.0986927 -1.1678545 -1.4559515
000090 e7 0e f9 3f f9 cc b4 bf e9 2b a0 bf 9c 76 d6 bf
       1.9457673 -1.4125053 -1.25134 -1.6754947
0000a0 1e 6b ed 3f 05 11 bb bf 08 2f cf bf e7 a8 f3 3f
       1.8548315 -1.4614569 -1.6186228 1.903592
0000b0 48 62 f3 3f d9 7b a9 bf 1e 83 a6 bf bf aa b8 bf
       1.9014368 -1.324092 -1.3008764 -1.4427108
0000c0 aa de fa 3f 51 00 b7 bf a2 c1 b1 bf b1 4b a2 bf
       1.9599202 -1.4296972 -1.3887217 -1.2679349
0000d0 b9 b0 ed 3f 15 27 ee 3f b9 ee f2 3f 86 6b 8b bf
       1.8569556 1.8605677 1.8979102 -1.0892189
0000e0 59 d9 91 bf a3 ca f2 3f 22 22 bd bf 1a bc b5 bf
       -1.1394454 1.896809 -1.4776042 -1.4198029
0000f0 76 6d 8f bf 35 4f 8e bf 4b c5 b0 bf 28 a0 ee 3f
       -1.120528 -1.1117922 -1.3810209 1.8642626
