rl_trainer/models/olympics-curling/run3/trained_model/actor_2600.pth (torch, 241503 bytes, 4 tensors)

linear_in.weight f4 [64, 900]
0.00090512127 -0.04078956 -0.03582372 -0.004125188 -0.037319567 0.02259142 -0.031718366 -0.005514981
0.021926973 -0.023546522 0.0022612163 0.03095613 -0.00074559206 -0.03455292 -0.0013378811 -0.035678737
-0.035445668 -0.010762456 0.005288124 -0.0052994685 -0.038766757 -0.037091378 -0.013488249 -0.007389833
-0.009542075 0.011541039 0.036336277 0.017904796 -0.024963435 0.025937801 0.0060582664 0.008067564
-0.013124246 -0.06531577 -0.047494076 -0.022869196 0.005758972 -0.019634724 -0.0050145714 -0.03042939
0.028453257 -0.0004841519 0.016112844 -0.02234799 -0.012357432 0.00014571399 -0.0544431 -0.025126126
-0.044875406 -0.011656309 -0.050256774 -0.030170513 0.014888371 0.02475731 0.048066568 0.04328989
0.013232468 -0.026049737 0.018210026 0.017612295 -0.024512416 0.008363105 -0.0072172806 -0.004820467
-0.022352941 0.0050083115 0.0015216306 -0.024159687 -0.024436055 -0.028910682 0.024513286 -0.015877105
0.0069238073 0.015155726 0.0045635686 0.017465234 -0.006304891 -0.020179844 -0.06829485 0.0003073306
-0.028915714 -0.028743053 0.011508559 -0.009806881 0.013832428 0.0046665384 -0.008016002 0.041681644
0.0023589903 0.02604965 0.027573893 -0.02812036 -0.018690815 -0.012782755 -0.03566918 -0.026729574
0.0029741405 0.0026949702 -0.02054648 0.0024748263 0.033307128 -0.022208786 -0.011073727 -0.006481802
-0.018559719 -0.007948133 0.0382823 -0.020670652 -0.008005561 0.009252659 0.010826656 0.038170267
0.0355501 -0.019046128 -0.023677742 0.059816916 0.04322221 0.0323648 -0.032672737 -0.016428083
-0.006053624 -0.00121513 0.008409928 -0.052084025 -0.00092299277 -0.027699511 -0.04755055 -0.0003212136
0.036620323 0.053954568 -0.015149411 -0.013048218 0.018339865 -0.0034495401 0.017876036 0.021410607
0.0073186895 -0.020183746 -0.049992498 -0.036963593 -0.0033092808 -0.011492585 -0.004077908 0.025281817
0.022322403 0.0073819775 0.020610528 0.013271269 -0.0105673 0.003736713 0.00035909246 0.03499788
-0.012380208 -0.032588977 -0.04900143 -0.027741214 -0.023217237 -0.011340584 0.046407923 0.010775169
-0.025784148 -0.0045235963 0.0052294224 -0.012368637 -0.039684817 0.009034346 -0.017695762 -0.024669206
-0.029569361 0.0015839335 -0.012713111 0.023965502 -0.006978133 0.011015299 0.040891442 0.033554733
0.05019459 0.0023707135 -0.048383474 0.015704053 0.0033340063 -0.018505048 -0.04753167 -0.027645225
-0.04256808 0.015694518 -0.046895895 -0.03248113 0.023975005 0.025453158 0.0075240233 -0.028803566
-0.018496905 -0.0051974226 0.0174621 -0.032973655 0.018925935 0.029458618 0.049789157 -0.009366499
0.018205158 -0.023017853 0.0027874096 -0.029302359 0.04614798 0.002129096 0.021522785 -0.0020460372
0.000527655 0.016133187 -0.016279716 -0.015983984 -0.037262317 0.026745968 0.016619401 0.0002504881
0.009199817 -0.040776838 0.005767159 0.054084677 -0.015533841 0.02719925 -0.0051487316 -0.02076098
0.0278869 -0.021232901 -0.02093026 0.03466593 0.059388064 0.04595836 -0.012704616 -0.025212482
0.012766987 -0.0023116006 0.0061978707 0.033836305 -0.0014490884 0.062552065 0.048173368 -0.036238007
-0.03834965 -0.010229083 -0.0021148764 -0.0050271573 -0.02625812 0.0047128727 -0.019903721 -0.024198556
-0.020642133 0.019459745 0.019569825 0.015515717 0.012621002 0.02267669 0.006431916 -0.016287385
00000000: a945 6d3a f412 27bd e5bb 12bd 962c 87bb
00000010: 67dc 18bd a411 b93c 1eeb 01bd 04b7 b4bb
00000020: 32a0 b33c a3e4 c0bc ea30 143b b697 fd3c
00000030: d673 43ba 5d87 0dbd d75b afba de23 12bd
00000040: 7a2f 11bd 0355 30bc 0048 ad3b 2aa7 adbb
00000050: e4c9 1ebd 21ed 17bd d1fd 5cbc 6a26 f2bb
00000060: 5d56 1cbc a016 3d3c 59d5 143d 14ad 923c
00000070: 1e80 ccbc 837b d43c 6c84 c63b d12d 043c
00000080: 1407 57bc 46c4 85bd 2689 42bd 2e58 bbbc
00000090: c2b5 bc3b 00d9 a0bc 4651 a4bb 0e47 f9bc
000000a0: ce16 e93c c5d5 fdb9 15ff 833c 2213 b7bc
000000b0: d476 4abc cdca 1839 baff 5ebd 4ed5 cdbc
000000c0: 46cf 37bd 1afa 3ebc 0cda 4dbd 2728 f7bc
000000d0: 5bee 733c d8cf ca3c 73e1 443d bd50 313d
000000e0: fecc 583c 4266 d5bc 312d 953c a947 903c
000000f0: 43ce c8bc 6805 093c f07e ecbb 02f5 9dbb
00000100: 841d b7bc c31c a43b 7371 c73a 89ea c5bc
00000110: 1f2e c8bc 18d6 ecbc 16d0 c83c b410 82bc
00000120: 1be1 e23b b94f 783c fd89 953b 4013 8f3c
00000130: 4299 cebb 3350 a5bc 2cde 8bbd 3721 a139
00000140: a6e0 ecbc 8d76 ebbc 658e 3c3c 0aad 20bc
00000150: 68a1 623c c3e9 983b 8d55 03bc 5fba 2a3d
00000160: 4a99 1a3b 1366 d53c a5e2 e13c ab5c e6bc
00000170: 7b1d 99bc c36e 51bc d919 12bd fbf7 dabc
00000180: cce9 423b 199e 303b 1751 a8bc b230 223b
00000190: 0e6d 083d 33ef b5bc 946e 35bc 4c65 d4bb
000001a0: 8d0a 98bc e338 02bc e7cd 1c3d 8055 a9bc
000001b0: c229 03bc 7798 173c 4962 313c 6d58 1c3d
000001c0: fb9c 113d a006 9cbc d3f7 c1bc 9502 753d
000001d0: c609 313d f490 043d d9d3 05bd 3094 86bc
000001e0: 7b5d c6bb ff44 9fba cbc9 093c 0f56 55bd
000001f0: fff4 71ba 16ea e2bc 5ec4 42bd 8f68 a8b9
00000200: 31ff 153d 77ff 5c3d 3c35 78bc 31c8 55bc
00000210: 7c3d 963c ae11 62bb c470 923c 4c65 af3c
00000220: 9ed1 ef3b 6258 a5bc efc4 4cbd 2367 17bd
00000230: 85e0 58bb 654b 3cbc f99f 85bb d01b cf3c
00000240: 79dd b63c 84e4 f13b 69d7 a83c bd6f 593c
00000250: 7822 2dbc a4e3 743b 9344 bc39 f059 0f3d
00000260: 5bd6 4abc 057c 05bd b9b5 48bd 8b41 e3bc
00000270: 1332 bebc dbcd 39bc 3c16 3e3d 568a 303c
00000280: 4739 d3bc ad3a 94bb 935b ab3b d3a5 4abc
00000290: 8c8c 22bd cb04 143c b4f6 90bc 1317 cabc
000002a0: 723b f2bc fd9b cf3a a74a 50bc 4d53 c43c
000002b0: d3a8 e4bb 8379 343c c97d 273d b070 093d
000002c0: d898 4d3d f95d 1b3b c02d 46bd c9a5 803c
000002d0: 587f 5a3b e697 97bc 92b0 42bd 3d78 e2bc
000002e0: de5b 2ebd ca91 803c e915 40bd ef0a 05bd
000002f0: 3b67 c43c 2483 d03c 158c f63b 75f5 ebbc
00000300: d286 97bc 244f aabb ae0c 8f3c 620f 07bd
00000310: 900a 9b3c 3353 f13c b7ef 4b3d f275 19bc
00000320: fc22 953c f08f bcbc f9ac 363b 800b f0bc
00000330: aa05 3d3d 4e88 0b3b 8d50 b03c cf16 06bb
00000340: 5452 0a3a bf29 843c 0a5d 85bc d8f0 82bc
00000350: 5fa0 18bd 5c1a db3c 6925 883c f253 8339
00000360: d4ba 163c 9d05 27bd 70fa bc3b e587 5d3d
00000370: a781 7ebc f6d0 de3c b1b6 a8bb ee12 aabc
00000380: 1173 e43c 9ff0 adbc f075 abbc ddfd 0d3d
00000390: e640 733d d53e 3c3d 0627 50bc 688a cebc
000003a0: a02c 513c 397e 17bb 8217 cb3b f097 0a3d
000003b0: 57ef bdba 4c1b 803d 7051 453d 4e6e 14bd
000003c0: 8614 1dbd e297 27bc bd99 0abb daba a4bb
000003d0: 451b d7bc 716e 9a3b 210d a3bc 0d3c c6bc
000003e0: b119 a9bc 0b6a 9f3c e650 a03c a235 7e3c
000003f0: 52c8 4e3c 77c4 b93c d2c2 d23b 1f6d 85bc

linear_in.bias f4 [64]
0.021043463 -0.008402963 0.019178746 0.012244894 -0.011517748 0.042489737 -0.032340687 0.0017773018
-0.0075105643 0.033869896 0.012646833 -0.02197008 -0.0067688883 0.021859022 -0.001032456 -0.014090544
0.010817804 -0.011338088 -0.015406969 0.000107557105 0.00514643 -0.012420704 0.0217358 0.04686183
0.014969878 -0.023365656 0.03491722 -0.026926804 -0.013792041 0.002040188 0.008974078 0.0132273445
0.02406292 0.027066618 -0.016642809 0.026679974 0.0009288032 0.0071649663 0.0015351621 0.009925457
-0.029305058 -0.025293248 -0.0019265519 0.0022216046 -0.011265297 0.04638369 -0.019358857 -0.004511307
-0.027319698 0.014127975 -0.026642771 -0.026652018 0.019213594 0.024124123 0.013231034 -0.030586751
0.009409381 -0.0072377124 -0.009028116 -0.0038548545 -0.020949816 -0.010368661 0.017495094 0.010360748
00000000: 5763 ac3c 95ac 09bc bf1c 9d3c cf9e 483c
00000010: f0b4 3cbc b809 2e3d ab77 04bd 5af4 e83a
00000020: 2e1b f6bb 29bb 0a3d aa34 4f3c 99fa b3bc
00000030: 8dcd ddbb b111 b33c 7a53 87ba 06dc 66bc
00000040: 293d 313c 63c3 39bc 836d 7cbc 4890 e138
00000050: 62a3 a83b 3580 4bbc 470f b23c 31f2 3f3d
00000060: 3844 753c 5569 bfbc 5c05 0f3d 9a95 dcbc
00000070: 03f8 61bc adb4 053b 0308 133c 81b7 583c
00000080: 9a1f c53c d0ba dd3c 8056 88bc f68f da3c
00000090: ed7a 733a 18c8 ea3b 7e37 c93a 629e 223c
000000a0: 2911 f0bc c933 cfbc 5b84 fcba 5798 113b
000000b0: 1592 38bc d3fc 3d3d 7796 9ebc 96d3 93bb
000000c0: 8fcd dfbc 0679 673c f141 dabc 5555 dabc
000000d0: d465 9d3c f49f c53c fbc6 583c 1191 fabc
000000e0: ce29 1a3c 552a edbb aaea 13bc baa1 7cbb
000000f0: f39e abbc 51e1 29bc df51 8f3c 20c0 293c

action_head.weight f4 [36, 64]
-0.06461506 0.05803766 -0.03963395 -0.08321029 -0.025511276 8.286082e-05 -0.04422057 -0.119666204
-0.015308796 0.027681427 -0.10662589 -0.0066793016 0.096294425 0.048984744 -0.06584565 -0.062706605
-0.11044481 -0.016353946 0.038340073 -0.0018578914 -0.0010193685 0.1163577 -0.098088756 0.12919523
-0.07353165 0.029185545 0.057639655 0.09507109 0.10326483 -0.073314965 0.09151008 -0.08274703
0.043836832 0.08006492 0.03778268 0.081919074 -0.016862413 0.12340297 0.11401781 -0.026860643
0.09961519 0.07691959 -0.09533724 0.12914132 -0.10209699 -0.053701296 0.08702491 0.069056965
0.058529478 -0.12045524 0.04785536 -0.0743593 -0.008737991 -0.051843982 0.07011313 -0.07528924
0.05518267 -0.05805077 -0.07725808 0.0014782544 -0.054955002 0.10811367 -0.13212065 0.028163146
0.043143068 -0.072603896 0.04839032 -0.008379231 -0.0034938895 -0.086772606 0.06805275 0.052350122
0.050442934 -0.062130798 -0.015286726 -0.04846828 0.017403498 -0.01386897 -0.056318853 -0.031484745
-0.044212364 -0.02674399 -0.12842149 -0.015533702 0.029260254 0.119269185 -0.02304077 0.10055316
0.11259396 0.032290317 0.13106719 0.07784351 0.13352205 0.062822804 -0.05298618 -0.076362155
-0.012202976 -0.06641111 0.10791143 0.07156533 -0.03455482 0.07088027 0.05052022 0.10996344
0.025061991 0.030587949 -0.08725007 -0.016197432 0.06931356 -0.037125796 0.09578547 -0.02398735
0.0069711776 0.10610036 0.033368576 0.0037270251 0.15117827 0.03865343 0.04708397 0.054249022
-0.046937935 0.0028420114 0.10016499 -0.0045119678 -0.004516208 -0.027081167 0.07583554 -0.11491896
-0.09324061 -0.031181801 0.13483398 -0.07407458 0.010782018 0.010972819 0.027425244 -0.08569727
-0.064920925 0.13115151 0.06965201 -0.06881772 0.06673762 0.019099258 -0.036661167 -0.09534223
0.071693 -0.007684392 -0.0189615 0.06485637 -0.033201303 -0.0058995895 -0.061496124 -0.053608473
0.06872027 -0.030202353 0.14496891 0.13333261 0.11781196 0.048779435 -0.0789388 0.07696372
0.12694909 0.12262745 -0.06930873 -0.100029364 0.08455654 0.11763917 0.14773314 -0.0638071
-0.04896709 0.022451997 0.041086417 -0.037459377 -0.06807934 0.048030496 -0.09775122 0.04335156
0.017614802 0.09175311 -0.057665005 -0.114181995 0.13174286 -0.027604533 -0.05910603 0.09361473
-0.03281399 -0.034821004 0.100699276 0.02609828 -0.03537912 -0.084494635 -0.07227873 -0.06963627
-0.033725783 0.061892055 0.088125 -0.101614505 -0.04044969 -0.10974207 -0.083933674 -0.025914043
-0.045973223 -0.0017673227 -0.0381986 -0.0640311 -0.13512869 0.025828753 0.0078553585 0.0053079505
-0.13710643 0.02074769 -0.016883496 -0.005035126 0.117114946 -0.09746306 -0.08060911 -0.1416511
0.02793576 -0.1332047 -0.11632211 0.01903527 -0.06253223 -0.09984554 0.07478181 0.06533863
0.025888735 -0.10955205 -0.040738393 0.046920795 0.059261467 -0.123357415 -0.0042429324 -0.11224061
-0.06625104 0.032157805 0.0690303 0.085486375 -0.10349647 0.013812861 0.06463189 0.061865203
-0.050135177 0.060953364 0.102432646 -0.09264774 0.05380372 0.07261457 0.08346452 -0.027770825
0.02766965 0.013106233 0.05538555 -0.015545329 -0.05939205 -0.13508086 0.099500224 -0.051551167
00000000: e754 84bd e6b8 6d3d 3557 22bd 286a aabd
00000010: 06fd d0bc 90c5 ad38 a120 35bd 8e13 f5bd
00000020: bfd1 7abc 29c4 e23c ad5e dabd 0bde dabb
00000030: 0336 c53d 3aa4 483d 16da 86bd 526c 80bd
00000040: e330 e2bd b6f8 85bc 7b0a 1d3d 7e84 f3ba
00000050: 559c 85ba f24c ee3d c2e2 c8bd c14b 043e
00000060: c397 96bd 8616 ef3c 8f17 6c3d a2b4 c23d
00000070: 837c d33d 2826 96bd a369 bb3d 4677 a9bd
00000080: 408e 333d 14f9 a33d 03c2 1a3d 30c5 a73d
00000090: 0b23 8abc b2ba fc3d 2b82 e93d da0a dcbc
000000a0: 0c03 cc3d 0588 9d3d 2c40 c3bd 9f3d 043e
000000b0: 3a18 d1bd e4f5 5bbd 1e3a b23d bd6d 8d3d
000000c0: 9bbc 6f3d 3db1 f6bd fb03 443d b049 98bd
000000d0: ca29 0fbc 5b5a 54bd 7997 8f3d 3f31 9abd
000000e0: 3907 623d a5c6 6dbd 7c39 9ebd fdc1 c13a
000000f0: 7f18 61bd b36a dd3d a34a 07be 66b6 e63c
00000100: c9b6 303d 5ab1 94bd ee34 463d 0b49 09bc
00000110: bdf9 64bb d6b5 b1bd 3d5f 8b3d 156d 563d
00000120: 409d 4e3d dd7c 7ebd 2d75 7abc ad86 46bd
00000130: c891 8e3c ad3a 63bc 99ae 66bd 26f6 00bd
00000140: 0618 35bd 3616 dbbc ec80 03be 1281 7ebc
00000150: 33b3 ef3c 6743 f43d ffbf bcbc d1ee cd3d
00000160: a997 e63d da42 043d 7a36 063e 6b6c 9f3d
00000170: 01ba 083e 3ea9 803d 0908 59bd c363 9cbd
00000180: feee 47bc 8c02 88bd ab00 dd3d d890 923d
00000190: 5b89 0dbd ad29 913d 4aee 4e3d 8334 e13d
000001a0: ce4e cd3c 9493 fa3c 2ab0 b2bd 7ab0 84bc
000001b0: 45f4 8d3d 3811 18bd 2c2b c43d 1e81 c4bc
000001c0: 7a6e e43b 254b d93d 7dad 083d 1b41 743b
000001d0: 7ace 1a3e 0f53 1e3d 1fdb 403d 3934 5e3d
000001e0: fe41 40bd 0a41 3a3b 4d23 cd3d 21d9 93bb
000001f0: b3fc 93bb 53d9 ddbc aa4f 9b3d a25a ebbd
00000200: eff4 bebd fa70 ffbc eb11 0a3e 6ab4 97bd
00000210: 10a7 303c 57c7 333c e8aa e03c 0d82 afbd
00000220: 43f5 84bd 954c 063e b7a5 8e3d 4ef0 8cbd
00000230: bcad 883d 0c76 9c3c 052a 16bd c942 c3bd
00000240: c8d3 923d 5acd fbbb 2655 9bbc 6bd3 843d
00000250: 17fe 07bd 5851 c1bb 5ce3 7bbd 8f94 5bbd
00000260: 37bd 8c3d ed6a f7bc bb72 143e 5888 083e
00000270: 6647 f13d f2cc 473d aaaa a1bd 289f 9d3d
00000280: f1fe 013e 1a24 fb3d bcf1 8dbd 32dc ccbd
00000290: fb2b ad3d ceec f03d 5b47 173e 4cad 82bd
000002a0: b791 48bd 40ed b73c 3b4a 283d 016f 19bd
000002b0: 2e6d 8bbd a0bb 443d cb31 c8bd 6891 313d
000002c0: eb4c 903c 0ee9 bb3d 2432 6cbd 40d8 e9bd
000002d0: 9ae7 063e e722 e2bc 2a19 72bd 14b9 bf3d
000002e0: f667 06bd 78a0 0ebd 6c3b ce3d 0fcc d53c
000002f0: b2e9 10bd 860b adbd df06 94bd 769d 8ebd
00000300: 0c24 0abd 8682 7d3d e17a b43d 441b d0bd
00000310: 93ae 25bd 73c0 e0bd 6be5 abbd b049 d4bc
00000320: 6b4e 3cbd 82a5 e7ba 2376 1cbd bd22 83bd
00000330: 2d5f 0abe d296 d33c c3b3 003c 51ee ad3b
00000340: a165 0cbe 0ff7 a93c 424f 8abc b3fd a4bb
00000350: f6d9 ef3d b69a c7bd 6416 a5bd fc0c 11be
00000360: 89d9 e43c d066 08be 493a eebd dbef 9b3c
00000370: e610 80bd d27b ccbd 3527 993d 42d0 853d
00000380: 9d14 d43c d35c e0bd 4ddd 26bd 0530 403d
00000390: 27bc 723d d0a2 fcbd 4c08 8bbb 68de e5bd
000003a0: a0ae 87bd e7b7 033d c25f 8d3d 7b13 af3d
000003b0: f5f5 d3bd 574f 623c b95d 843d 5e66 7d3d
000003c0: 8b5a 4dbd 3caa 793d 35c8 d13d 19be bdbd
000003d0: 4a61 5c3d f3b6 943d 72ef aa3d a47f e3bc
000003e0: 76ab e23c 87bb 563c f5db 623d d6b1 7ebc
000003f0: 1445 73bd a352 0abe c6c6 cb3d 5127 53bd

action_head.bias f4 [36]
0.06622488 0.036056116 -0.08394941 -0.10013716 0.03775988 -0.057831507 -0.10586666 0.08479456
-0.048415024 -0.03430238 -0.15155461 -0.081062585 -0.036029078 -0.028472701 -0.047149092 -0.06784233
0.062821 0.086928755 -0.049592447 -0.02667511 -0.06103803 -0.07462056 -0.04736655 0.10696882
-0.007736097 -0.043897018 0.06789189 0.05819698 -0.022249563 0.122700945 0.055138484 0.115992054
0.118806005 -0.0025343834 0.094367206 0.076161064
00000000: e9a0 873d 94af 133d abed abbd b614 cdbd
00000010: 1baa 1a3d bbe0 6cbd 9fd0 d8bd c5a8 ad3d
00000020: d54e 46bd a780 0cbd 2231 1bbe 2404 a6bd
00000030: 3a93 13bd 953f e9bc 681f 41bd ebf0 8abd
00000040: 4ca8 803d b407 b23d 7321 4bbd c385 dabc
00000050: 0303 7abd aad2 98bd 6d03 42bd 7812 db3d
00000060: 167f fdbb 5ccd 33bd e70a 8b3d f55f 6e3d
00000070: b744 b6bc a24a fb3d e4d8 613d 3e8d ed3d
00000080: 9050 f33d e617 26bb 9843 c13d 55fa 9b3d
