rl_trainer/models/olympics-curling/run3/trained_model/critic_2600.pth (torch, 232415 bytes, 3 tensors)

linear_in.weight f4 [64, 900]
00000000: 4e3e 373c faae 08bd 68a3 6a3c 2635 cdbc
00000010: d3f9 30bd 74b8 22bd 7377 d63c 6d17 b43b
00000020: 0d6e b63c 61bc 423c 5861 253d 39e3 173d
00000030: e63f ac3c 1b95 683c 43bf 3c3b de7c 363d
00000040: 90dc ac3b 7019 643c abdb ff3b f955 07bc
00000050: f378 04bd 3f32 313a 500e 803b 89e2 8abd
00000060: 4157 4bbd 2412 ed3b 14f8 673b cdf4 19bd
00000070: 3829 68bc 26d6 623d a252 973b 49dc b3bc
00000080: 3bc3 f73c a442 8d3b b1b6 aebc 6a92 50bc
00000090: 433d f33c a271 123d 41c0 09bc 19dd bcbc
000000a0: 1fc4 dbba 5b18 853d b3d1 923c 4894 d83c
000000b0: 4941 b3bc 72a5 7e3d 7e4e 773c 5cc2 6d3c
000000c0: ba49 fab7 0c48 ad3c 4116 463c 789a c9b9
000000d0: bbed 30bc 9e76 4bbc 34ff af3c 909c da3b
000000e0: c01a c2bb cd5e 9b3c b837 e13c 0e6b 033d
000000f0: 4e80 25bd a23b d0bc 6b9a 8a3b 0ea2 903c
00000100: ef7a dcbc 0006 3a3d 1a58 b8bb b835 ba3c
00000110: e7c9 8ebb d6a6 353d c9e1 1f3d 9d42 903c
00000120: 196d ed3c 86e7 89bd eac6 fdbc bed1 18bd
00000130: 1f4f f1bc c342 8abd 2798 0c3d 35ae 0b3d
00000140: 8f4f f53c 78ee dd3c 6e8d 3a3d 8462 943c
00000150: 9935 d63c 7086 a2bc 6453 3f3c 4a36 c63c
00000160: f3aa 233d fbc5 e63c 1bc4 06bd 695c edbb
00000170: a7f1 9f3c 36cf d03c 812a 573c ac6a 91bc
00000180: 9d47 f33c b0b9 623c 90b2 2e3c 92d6 423d
00000190: 5b5d 4bbd 755c 1bbd 2125 ea3b c6c8 42bb
000001a0: 0997 1abd 92b0 2a3b 3a65 babd fc45 8abd
000001b0: 26a5 05bd 477d 83bd 59d4 e6bc 0ef6 273c
000001c0: 9388 e83b bd6d a7bc 9690 e33c 2810 b1bc
000001d0: 89cd f93b 32e4 bebc baa3 053d c959 00bd
000001e0: 20bf 02bc 436a 0dbd 4179 9f3c 1b90 813b
000001f0: 05a2 e23b 166c f13c c6ff db3c 31a7 e1bc
00000200: 2a0d b33b ea8c 273c 9b74 e0bc 17ee 093d
00000210: 7198 733c 9b78 ffbc 2a0b 85bc 4cf3 e23c
00000220: 4604 1b3c aa86 4c3c ce59 743c d930 21bd
00000230: 446b 90bd 7814 eabc abb8 60bd 13e8 8cbd
00000240: 4aa0 a23b e96d 8cbc df5a 8cbc 611b b3bc
00000250: e08b 9e39 e382 f03c 308a b2bc c282 32bd
00000260: 7c8b 063c c3ab 6bbc beff ce3c 8152 16b8
00000270: d9ba 033d f67f 1e3d 338e 343d 7f9a fbba
00000280: 3dfa 783b 0dd0 08bc 60ff c23c 829b 85bc
00000290: d4b2 e23c ad13 bd3c 0146 efbc 51f5 d6bb
000002a0: ebec 1b3c 97fb d03c 31c7 52bc f15c a33b
000002b0: 126f 45bd 36c1 6dbc 221c 1f3d b5d8 d4bc
000002c0: 86eb 84bd 5c9f 243c d1ae 753d 589a 433d
000002d0: eb54 f9bc 8af6 e33c debd babb 2dc9 873b
000002e0: d82a 0abc 8548 9f3c 1955 2c3d c0ab 513c
000002f0: b637 49bc aff1 bf3c 9d76 e63c 8ee5 05bc
00000300: 5c96 123d e23e 8e3c 9a93 adbc d2a9 853c
00000310: fe61 1ebc e9ca 92ba e16e 0bbd 95f5 9bbc
00000320: b0e5 6cbd 581b 39bd 1468 ffbc 2936 b83b
00000330: 2059 cabc 33d7 dcbd 88f5 0dbc 0c03 4cbc
00000340: b0a2 8d3c 7b80 8cbc 4129 c2bc 210b a83b
00000350: 1867 b73c b10e 933a ecc8 ab3b 81f4 893a
00000360: 0872 0f3c f8ca 803c ac67 023d 16e8 303d
00000370: c36c 3e3d 1944 da3c 00f8 443b 8abc 1a3d
00000380: 1215 8d3c f293 813b 71bd 3ebb 2c95 00bc
00000390: ad43 0abd 3664 2dbd b275 3abd 2d8f 16bd
000003a0: b4cc 1539 bcdb c8bc 954f 97bd 3249 95bd
000003b0: a5f3 30bd b606 b0bd 835d 1dbd e398 003c
000003c0: 25d7 463c b473 3dbc 63d6 7fbb 7e23 73bc
000003d0: 2cb6 953b f33a 6dbc 88c0 b3bc de13 65bb
000003e0: b456 173d 5136 07bd 8434 ab3b 7ce3 b83b
000003f0: 4d65 f83c 5d49 283c 0b8a 0f3d ea12 dfbb
0.011184288 -0.033369996 0.014321186 -0.025049757 -0.043207 -0.03972669 0.026180005 0.0054959566
0.022269273 0.011885733 0.040376037 0.03708193 0.021026563 0.014195706 0.0028800524 0.044552676
0.0052753165 0.01392208 0.007808169 -0.008260244 -0.03234191 0.00067595014 0.003907956 -0.067814894
-0.04964376 0.0072348285 0.0035395669 -0.037586976 -0.014169984 0.05538001 0.004618005 -0.021955626
0.03024446 0.0043109227 -0.021327348 -0.01273022 0.029692298 0.0357529 -0.008407653 -0.023054646
-0.0016766823 0.06498786 0.017922258 0.026437894 -0.021881716 0.0621695 0.015094398 0.014511671
-2.9836654e-05 0.021152519 0.012090267 -0.00038452796 -0.010798867 -0.012418417 0.021483995 0.0066714957
-0.005923599 0.018966103 0.02749239 0.032084517 -0.040405564 -0.02541906 0.004229834 0.017655399
-0.026914088 0.04541588 -0.005625737 0.022730693 -0.0043575647 0.04434856 0.039033685 0.017609889
0.028982686 -0.06733613 -0.030978639 -0.0373094 -0.029456673 -0.06751015 0.03432479 0.034101684
0.029945163 0.02709125 0.045545034 0.018113382 0.026148604 -0.019839495 0.011677597 0.024195809
0.03995795 0.028170576 -0.032901864 -0.007243682 0.019524409 0.02548943 0.013132692 -0.01775106
0.029697234 0.013838217 0.01066269 0.04756791 -0.049649578 -0.03792997 0.0071455394 -0.002972172
-0.037741695 0.0026045186 -0.09101339 -0.0675163 -0.0326282 -0.06420379 -0.028177427 0.010251535
0.007096359 -0.02043807 0.027778905 -0.02161415 0.0076233787 -0.023302171 0.032626845 -0.031335626
-0.007980138 -0.034525167 0.019466998 0.0039539463 0.006916287 0.029470485 0.02685536 -0.027545543
0.0054642158 0.010226468 -0.027399352 0.033674326 0.014867888 -0.031185439 -0.016240675 0.027703904
0.009461468 0.012483278 0.014913989 -0.039353225 -0.07051709 -0.028574213 -0.054863613 -0.06880202
0.0049629556 -0.017142253 -0.017133174 -0.021863641 0.00030240323 0.029359287 -0.021794409 -0.04358173
0.008211967 -0.014384213 0.025268432 -3.5839625e-05 0.032160614 0.03869625 0.044080924 -0.0019195824
0.003799095 -0.008350384 0.023803413 -0.016309503 0.027673163 0.023080671 -0.029208185 -0.0065600057
0.009516935 0.025510592 -0.012864874 0.0049854447 -0.048201628 -0.014511397 0.03884519 -0.02598224
-0.06490235 0.01004776 0.05998117 0.047754616 -0.030436 0.02782752 -0.0056989035 0.004143855
-0.008433066 0.01944376 0.042073343 0.012797296 -0.012281349 0.023430673 0.028132731 -0.008172406
0.035787925 0.01736397 -0.021188546 0.016316328 -0.009666918 -0.0011199388 -0.03404129 -0.019038001
-0.057836235 -0.045192093 -0.031177558 0.005621691 -0.024700701 -0.107832335 -0.008664496 -0.012451898
0.01728949 -0.017151108 -0.023701312 0.00512828 0.022388026 0.0011219588 0.0052424576 0.0010525138
0.0087552145 0.015721783 0.03183715 0.043190084 0.046490442 0.0266438 0.0030055046 0.03777746
0.017221961 0.003954404 -0.0029104615 -0.007848065 -0.033755947 -0.042331897 -0.0455224 -0.036757637
0.00014286005 -0.02451884 -0.07388226 -0.072893515 -0.043201108 -0.0859503 -0.038419258 0.007848951
0.012136255 -0.01156323 -0.0039037697 -0.014840005 0.0045688357 -0.014479387 -0.021942392 -0.0034954469
0.03694792 -0.033010785 0.005224766 0.0056423526 0.030321741 0.010271397 0.035043757 -0.0068076747

linear_in.bias f4 [64]
00000000: 009e b83d 5d57 8abd d531 1ebd 6f92 643d
00000010: 1f80 973d 8271 3b3d bf54 ac3d 5307 e53c
00000020: b45b b53d 994f 603d 87bf 84bd 62be a33d
00000030: 465a 2dbd a9c4 57bd 51eb 273d a06d 9bbc
00000040: 1a9d 113b 5aec 9a3d c6da c83d f15a 9d3d
00000050: 0709 7c3d ebe7 9f3d b4e1 acbd bf61 00bd
00000060: f55c 58bd 5f43 03bd 90e2 8d3d edcf 3b3d
00000070: 501d 85bd 3f2d 813d ee87 9c3d 5521 493d
00000080: 81ad 0f3e d594 323c e4df 15bd 681f 0bbd
00000090: af8c 333d 040f 60bd 197a 40bd 5c4c 983d
000000a0: 56b9 b73d 83df 9bbd 02cf b43d ea59 323d
000000b0: 7871 4a3d 11a5 96bc f173 89bd 59db bcbd
000000c0: 4088 a63d 6a58 0bbc a7a2 3cbd a78e cf3d
000000d0: cefd 2e3d 81e9 cd3d da93 bc3d 9bfb b83d
000000e0: 5ffc e8bb c09f 713d cae5 90bd 2a0e 7fbd
000000f0: 4997 0b3d af38 1cbc c696 70bd 8557 a63d
0.09014511 -0.067549445 -0.038621742 0.055803712 0.07397484 0.045762546 0.084146015 0.027957594
0.088553816 0.05476341 -0.064818434 0.07995297 -0.04232242 -0.052677784 0.0409959 -0.018973172
0.0022218884 0.07564612 0.09807353 0.07683361 0.061532047 0.07807907 -0.08441487 -0.031343218
-0.052823026 -0.032046672 0.06927979 0.04585259 -0.064997315 0.06307458 0.07643114 0.049104054
0.1403103 0.010899742 -0.036590472 -0.0339655 0.04383534 -0.05470182 -0.04699144 0.074364394
0.08970897 -0.07610991 0.08828546 0.04354278 0.04942462 -0.018389257 -0.06711567 -0.09221525
0.081314564 -0.008504966 -0.046053555 0.10134631 0.042722516 0.10054303 0.09207888 0.09032365
-0.007110163 0.05899024 -0.07075079 -0.062269367 0.034079824 -0.009534999 -0.05873754 0.08122162

state_value.weight f4 [1, 64]
00000000: dac2 b03d 9583 1cbd d589 60bd 4205 0a3e
00000010: 716d 9a3d 2123 a23d 8470 e03d 3dea e53d
00000020: be29 5d3d 7e15 183d 0b25 13be 1a8a ec3d
00000030: 4d64 a1bd 79df eebd 06aa b53c 28a5 08be
00000040: a239 433d 9dcc 9b3d 9cdc 9f3d 7305 d93d
00000050: f223 863d 4d06 9d3d 629b 9abd 8942 29be
00000060: 7603 0cbe cd30 11bd d3d1 a73d 9bdd 5b3d
00000070: b653 29be 41aa 203d 9760 cc3d 7237 d93c
00000080: 0086 e93d 9620 923d d417 e53c b646 09be
00000090: fee4 fc3d 3df1 f2bd dc6e 613b 13d7 2c3d
000000a0: 4118 423d 5896 0cbe 0027 733d 9228 c93d
000000b0: 341f cf3d 09fc 3ebd 6d6b 14bd 619f 07be
000000c0: 30df 143e 19bc f6bd b43c b9bd badc 083d
000000d0: 9f37 3b3d ce9d 6a3d 3a26 c93d 82c5 ef3d
000000e0: a2d8 203d 8568 b73d 9cf5 f6bd 4ccc fcbd
000000f0: 2de9 543d 789c 073e e087 dabd 59b1 533d
0.08630915 -0.038211424 -0.054818947 0.13478568 0.075404055 0.079168566 0.10958961 0.11226318
0.053994887 0.03712987 -0.143696 0.11549778 -0.07880459 -0.11663718 0.0221758 -0.13344252
0.047662385 0.07607386 0.0780575 0.105967425 0.06549825 0.076672174 -0.07549168 -0.16529287
-0.13673195 -0.03544693 0.08194318 0.053678136 -0.1653584 0.039224867 0.099793606 0.026515696
0.114025116 0.071351215 0.027965464 -0.1340588 0.12348364 -0.11862419 0.0034398353 0.0421973
0.04738641 -0.13729227 0.059363365 0.09822191 0.101133734 -0.04662708 -0.03623526 -0.13244392
0.14538264 -0.120475955 -0.09044781 0.033413626 0.04570734 0.0572794 0.09821744 0.117075935
0.039269097 0.089554824 -0.12058565 -0.12343654 0.051980186 0.13243282 -0.10670447 0.051682804
