rl_trainer/models/olympics-curling/run2/trained_model/actor_1500.pth (torch, 241503 bytes, 4 tensors)

linear_in.weight f4 [64, 900]
000000 f2 11 fc 3b 7c bd cd bc 8b 92 15 3c 09 48 b1 3b
       0.007692569 -0.025114767 0.009129177 0.0054101986
000010 9a b6 a2 bd c2 d0 0c 3b 05 c2 1a bd a0 dd 49 bc
       -0.07944985 0.0021486734 -0.037782688 -0.012320906
000020 37 5a 95 bc 5f 8c 4c bd ef 7c 45 3b 4e 2d 48 bb
       -0.018231494 -0.049938556 0.003013428 -0.0030544582
000030 b6 a4 9d 3b 8e 1e bb bb 85 b2 43 3c 30 e8 bb bc
       0.004810895 -0.0057104295 0.011944418 -0.022937864
000040 c8 da 03 3d 5d 5d 4b bd 93 88 56 bc d2 87 75 3d
       0.032191068 -0.049649585 -0.013094085 0.05994398
000050 c9 29 85 3b 85 a5 83 3c 94 f2 70 3c b8 9f 41 3d
       0.004063819 0.016070137 0.014706273 0.04727146
000060 bb 1c 27 3d 33 10 ac 3c bd 25 50 3d 94 84 08 3d
       0.040798884 0.021003818 0.05081724 0.03332956
000070 2b da 33 bd c5 2a 88 3d 64 c7 14 bc 48 54 d3 3b
       -0.043909233 0.06648783 -0.009080742 0.006449256
000080 00 86 bb 3c c7 4a 99 bd 0d 4e 90 bd d3 31 4c bd
       0.022891045 -0.07484966 -0.07046137 -0.049852204
000090 ee 7d 93 3b 08 f1 57 bd 1a 5e ae bc 9b 6b 5e bc
       0.004501096 -0.0527201 -0.021285105 -0.01357546
0000a0 5b e7 4d 3d 71 b0 f8 bc 46 dc 42 3d 64 ed 19 3d
       0.050269466 -0.030357571 0.04757335 0.03757991
0000b0 05 7d d3 ba 20 36 e4 3c be 03 8e bd 5a c6 9a bc
       -0.0016135281 0.02785784 -0.069343075 -0.01889341
0000c0 a9 bc 00 bd 08 e6 cb 3c c0 b8 7c bc a6 e8 ac 3b
       -0.03142992 0.02488996 -0.015424907 0.0052767573
0000d0 7d 43 ab 3d d8 1f 19 3d d5 9d 59 3d 7c 07 01 3d
       0.08362482 0.037383884 0.053129036 0.03150128
0000e0 d2 29 8e 3c d1 eb 81 3c 93 3a 3e 3d 81 85 63 3b
       0.017353926 0.015859516 0.04644258 0.0034717026
0000f0 79 1d 0e bd 1a a1 9b 3c 04 45 80 b9 3e 73 6a 3b
       -0.034696076 0.018997718 -0.00024465483 0.0035774256
000100 ea 63 87 bd 28 0e 12 bd bc ba a1 bc e1 97 3c bd
       -0.06610854 -0.03565803 -0.019742362 -0.04604328
000110 e7 88 84 bd dc 24 09 bd 2d 9b 2f 3d 43 b5 c1 bc
       -0.064714245 -0.033482417 0.042872597 -0.023646003
000120 89 58 df 3c 0f 35 0f 3d e3 78 20 bc 72 e2 be ba
       0.027263897 0.03496271 -0.009794447 -0.0014563336
000130 96 8c be bb b3 5f a2 bc 99 57 8c bd 25 85 76 3c
       -0.005815099 -0.019821024 -0.068526454 0.015046393
000140 8d f1 20 bd ba c8 19 3d c0 a1 7f 3d 4c 1b 86 3d
       -0.03929286 0.037544943 0.062410116 0.06548175
000150 45 d4 14 3d a3 07 96 bd 51 04 50 bd 62 e8 fc 3c
       0.03633525 -0.07325675 -0.050785366 0.030872528
000160 fc 67 e8 3c 81 cd a0 3b f6 5a d4 3b 06 d5 0a bd
       0.028369896 0.0049073105 0.00648057 -0.03389456
000170 86 15 13 3d ac 8c 87 3c ff 45 4e bd 04 d9 88 bd
       0.0359092 0.01654657 -0.050359722 -0.066820174
000180 d3 cd 93 bb e5 ad 4e bd d6 b4 7c bd 28 83 86 bc
       -0.00451062 -0.050458807 -0.061695896 -0.016419962
000190 ef 5a 09 3d 06 55 5d 3b d7 32 56 3d 0b 56 08 3d
       0.033533987 0.0033772602 0.05229458 0.033285182
0001a0 a8 5d 11 bd 1d e2 ac bc b3 12 8d 3c 1a 5a fa bc
       -0.03548971 -0.021103913 0.01722083 -0.030560542
0001b0 06 ea 06 bc 7c ed dc 38 46 57 03 3d ce b4 8f 3d
       -0.0082345065 0.000105346524 0.032065652 0.07016908
0001c0 86 58 39 3d 64 2e 25 bc 52 e1 0b 3d 5e 8f de 3c
       0.04525044 -0.010081861 0.03415043 0.027167972
0001d0 21 df 22 3c 0d b5 af 3c a3 7f ce 3c 32 f0 29 bd
       0.009940893 0.021448636 0.025207346 -0.041488834
0001e0 27 e0 61 bd 7d 43 22 3b b7 38 7e 3d ba 19 b1 3b
       -0.05514541 0.0024759464 0.062065806 0.005404678
0001f0 6b 43 79 3c 40 78 13 bd 04 8e 63 bd 32 30 1e bd
       0.015213828 -0.03600335 -0.05555536 -0.03862018
000200 03 77 85 bc 90 66 91 3d 4d c2 01 bd fe f2 0f 3d
       -0.0162921 0.0709964 -0.03167944 0.035143845
000210 72 2b 93 3d 41 1d bd 3c d3 4a c1 bc e7 78 b3 3a
       0.07186021 0.023085238 -0.02359525 0.0013692648
000220 e4 1f af bb 00 54 c1 bc b3 b2 b1 bd f5 cc 06 bd
       -0.005344378 -0.023599625 -0.08676662 -0.032910306
000230 10 69 23 bb 88 5a ad bc f0 55 10 bd d7 cd 05 3d
       -0.0024934448 -0.021161333 -0.035238206 0.032667007
000240 02 3f bb 3c 63 65 15 3c d9 97 f2 3b 40 37 6b 3d
       0.022857193 0.009118411 0.0074033556 0.057425737
000250 33 07 99 3d 41 78 60 3d 77 2f 31 bd 62 42 f3 3b
       0.07472076 0.054802183 -0.043258157 0.007423685
000260 a2 f6 5d bc bd 45 8e bc 5c 48 22 bd 7a f0 aa bc
       -0.013547571 -0.017367238 -0.03961979 -0.020866621
000270 18 2e 11 3b 58 e4 89 bc 6c f0 ec 3c 5b e5 8e 3c
       0.0022152718 -0.016832516 0.028923236 0.01744335
000280 d2 b2 de 3b 43 f2 1a 3d 63 7d 1c 3d 7b 3f c0 3a
       0.0067962194 0.037828695 0.038205516 0.0014667356
000290 f1 7e 79 bd 0a 20 7b bd 6a 1f 07 bd 2a 77 37 bc
       -0.060912076 -0.06130985 -0.032988943 -0.0111978445
0002a0 1b cc 37 bd b1 42 25 bc 06 39 fc 3c d4 b3 82 bb
       -0.044872385 -0.010086701 0.03078891 -0.0039887223
0002b0 7d b3 6d bc 7a bd b4 3c 9f cb 85 3d 3d 65 45 3d
       -0.014508125 0.022063006 0.06532978 0.04819225
0002c0 26 d0 a3 3d 58 0e 8d 3d 23 36 eb 3c 07 a1 78 3d
       0.079986855 0.068875015 0.028712338 0.060700443
0002d0 94 15 09 bd 82 f0 03 bc 43 1b 1c bd 1a e9 88 bd
       -0.033467844 -0.008052947 -0.038111936 -0.066850856
0002e0 5f bf 79 bd 91 8f 24 3d 22 4d b3 bc 43 df a0 bb
       -0.06097352 0.040175978 -0.021887366 -0.0049094274
0002f0 76 0f ea 3c 06 56 7b bb 69 93 c3 3c 7b 9a 26 bc
       0.028571825 -0.0038350835 0.023874002 -0.010168667
000300 20 57 a3 bc d0 76 da bc 60 9a d7 bc 49 45 02 be
       -0.019939005 -0.026667982 -0.026318729 -0.12721743
000310 0c 0e 8d bd 10 9b 1f 3d b7 7b 11 3d 94 d5 e9 bc
       -0.06887445 0.03896624 0.035518374 -0.028544225
000320 fb 80 b1 3c e3 d4 22 bd a5 f1 4b 3c b6 42 a2 bc
       0.021667948 -0.039753806 0.012447749 -0.0198072
000330 a4 78 61 3d c0 25 22 3c 84 34 e6 3c eb 81 ac 3c
       0.055046692 0.009896696 0.028101213 0.021058043
000340 a1 21 46 3c 20 ab 46 3d 73 e9 6b bc 78 c8 e8 bc
       0.012092979 0.04850304 -0.01439892 -0.028415903
000350 c1 b8 9f bd 93 58 1b 3c 0d 8b 0f 3d 82 9e e8 3c
       -0.07798911 0.009481567 0.03504472 0.028395895
000360 fd 86 9c 3c 03 af 02 bd b7 e3 26 3c 99 3d 3b 3d
       0.019107336 -0.031905185 0.010186127 0.04571304
000370 45 13 02 bd 71 25 2b 3c ac c7 91 bd d5 32 61 bd
       -0.031756658 0.010445938 -0.071181625 -0.054980118
000380 7e bb 01 bd 1a 4f 05 be 72 e8 92 bd 6a 91 06 3d
       -0.031672947 -0.13018456 -0.07173242 0.03285352
000390 28 98 4e 3d 1e 7c eb 3c 46 24 1b 3c c1 2d 20 bd
       0.050438076 0.028745707 0.0094690975 -0.039106134
0003a0 6c b8 04 bd 75 3f 46 bc d0 5f c6 bc 83 8d 8d 3c
       -0.03240244 -0.01210009 -0.024215609 0.017279392
0003b0 32 ad e7 bc dc 2d 21 3c 34 6c b3 3c ac 54 45 3b
       -0.028280828 0.009837594 0.021902181 0.0030110283
0003c0 a8 48 40 bd 0a f8 bb bc 14 c8 70 3b 2d f1 80 bc
       -0.04694429 -0.022945423 0.003674035 -0.015740002
0003d0 37 14 2e bc 82 ce 82 bb c5 e8 40 bd 38 a2 cf bc
       -0.010624937 -0.003991903 -0.047096986 -0.025345907
0003e0 99 a1 8c 3c 3a 28 6d 3d f1 2d 1c 3d be 32 d3 bc
       0.0171669 0.05789969 0.03812975 -0.025781032
0003f0 ec 68 99 bd 54 c1 28 bd eb ce ee bb ab 63 b8 bd
       -0.074907154 -0.041199997 -0.00728785 -0.09003385

linear_in.bias f4 [64]
000000 11 17 f9 3c 50 ae 58 3c 80 0c c4 3c d9 db 63 bc
       0.030406507 0.013225153 0.023931742 -0.013907396
000010 ac 6f d4 3c 0a a5 cc 3d e4 70 a9 3c 4d 4c 3b 3c
       0.025932156 0.09992416 0.020683713 0.011431766
000020 7c 7c c5 bc 57 96 21 3d 30 96 0f 3d de 1c 19 bd
       -0.02410721 0.039450016 0.03505534 -0.037381046
000030 1e 36 0d bc 28 26 03 3d d9 7e 28 bc c3 41 4a bc
       -0.00861886 0.03201881 -0.010284149 -0.01234478
000040 a0 35 06 3d 87 f1 a4 bc 50 d5 9a bc 04 06 25 3d
       0.032765985 -0.0201347 -0.018900543 0.04028894
000050 c0 51 b0 bc 72 41 1a bd 38 9e 3c 3c 09 84 be 3d
       -0.021523356 -0.03766007 0.011512332 0.093025275
000060 9e 25 1e 3c c4 c8 18 bd 4b d6 cb 3c ee da 83 3c
       0.009652523 -0.03730084 0.024882456 0.016095605
000070 8a 1c 32 3b 1f f1 12 3d 0c c4 e9 3b ea c1 f0 3c
       0.0027177655 0.035874482 0.0071339663 0.02938934
000080 be b2 b0 3c bd c2 78 3c f6 32 6c bc 0a 87 0f 3d
       0.021569606 0.015183148 -0.014416447 0.035040893
000090 9b 7d 3f 3c 93 fd d5 3c 7c 25 db 3b 79 5a 34 3d
       0.0116876615 0.02612189 0.006687818 0.044031594
0000a0 3a 87 48 3c 27 cf 61 3b ad 4a a8 bb 8a 74 42 3d
       0.012239272 0.0034455748 -0.005135855 0.04747442
0000b0 a4 d2 d2 bc dc 9a 56 3d e3 f9 1a 3d 57 d3 23 3d
       -0.025735207 0.05239378 0.037835967 0.03999647
0000c0 42 e2 9f bc 43 b5 a5 3c 9f 3b b1 bc 53 87 1c bc
       -0.019517068 0.020228034 -0.021634875 -0.009553748
0000d0 39 ab 0e 3d 18 93 1e 3d 89 89 a1 bc 7d 2d 08 bd
       0.03483126 0.0387145 -0.019718902 -0.033246506
0000e0 9d 9b 79 3b 7e 5e 56 39 79 75 2f 3a f3 ec be 3b
       0.0038087138 0.00020443831 0.0006693225 0.0058265864
0000f0 3b cb a1 b9 75 d7 25 bc 51 20 d0 3c b5 a6 ca 3b
       -0.00030859731 -0.01012217 0.025406035 0.006184424

action_head.weight f4 [36, 64]
000000 29 40 71 bd 3c ce 5b 3d 10 09 80 bd 25 29 92 bd
       -0.05889908 0.053663477 -0.062517285 -0.07136754
000010 31 fa dc bd 2e 16 38 bd 3e d9 89 bd fc 61 21 be
       -0.10789908 -0.044943027 -0.06730889 -0.15760034
000020 08 f1 37 bd 5a b8 16 bd f2 3f f7 bd 6a d9 3f bd
       -0.0449076 -0.036796905 -0.120727435 -0.0468382
000030 6e 80 9d 3d 11 8b 84 3c 0c df b0 bd a4 ad 27 be
       0.07690512 0.016179593 -0.08636293 -0.16374832
000040 96 09 24 be 8b e4 99 bc dd 95 44 3c ca a0 3d bc
       -0.16019282 -0.018785736 0.011998621 -0.01157398
000050 e7 4d 6e bc 99 93 78 3d 05 f6 e7 bd 87 6e e0 3d
       -0.014544941 0.060687635 -0.113262214 0.109585814
000060 68 93 f8 bd d1 6c 5d 3c 43 80 7a 3d 6f 92 98 3d
       -0.121374905 0.013514713 0.061157476 0.07449805
000070 2f 7e 95 3d f9 e0 18 be 11 a1 9f 3d 1e a3 24 be
       0.07299458 -0.1492957 0.07794393 -0.1607785
000080 98 ff 86 bc 32 9c c7 3d a1 9e d4 3c 81 83 88 3d
       -0.016479298 0.09746589 0.025954546 0.066657074
000090 89 09 2b bd 83 28 bc 3d c4 df b0 3d 05 d2 90 bd
       -0.04175714 0.091874145 0.0863643 -0.07071308
0000a0 51 a3 8d 3d 6f 40 f8 3c d0 7e 12 be 65 0e 7c 3d
       0.06915916 0.030304162 -0.14306188 0.061537165
0000b0 3d 65 f0 bd d4 65 db bd 41 00 81 3d 28 33 84 3d
       -0.1173806 -0.107127815 0.062988766 0.0645507
0000c0 76 22 97 3c 7d d5 07 be 84 b8 27 3d 7f b9 5e bd
       0.01844905 -0.13265033 0.040947452 -0.05437612
0000d0 20 42 a5 bd 3e 92 b6 bd 72 14 f1 bc 0f 53 db bd
       -0.08069253 -0.08914612 -0.029428694 -0.107092015
0000e0 4a ae 25 3d 6d b3 61 bd 25 ea 06 be 4d 97 b4 bb
       0.040449418 -0.055102754 -0.13175257 -0.0055112005
0000f0 47 56 9b bd fa ff ba 3d d5 4c 0d be c2 aa bb 3c
       -0.075848155 0.09130855 -0.1379884 0.022908572
000100 5c 15 0d bc a8 f5 04 be d0 2f 9c bc 31 c4 57 bd
       -0.0086110495 -0.12984335 -0.019065768 -0.052677337
000110 10 50 cd bd 83 c5 0c be c7 b4 5a 3d 5e b0 1a bd
       -0.10025036 -0.1374722 0.05339506 -0.037765853
000120 93 a5 55 bc 2f 72 03 be 8b a8 bc bd 28 0a 52 bd
       -0.013039964 -0.12836526 -0.092118345 -0.051279217
000130 b8 79 88 bd fc 06 e1 bd 42 20 ed bd 3c 0a 79 bd
       -0.06663841 -0.1098766 -0.11578418 -0.060800776
000140 2f 2c f0 bd 65 19 8f bd 9e 24 29 be 8b f2 5d bd
       -0.11727177 -0.069872655 -0.16517875 -0.054186385
000150 24 25 b7 3c 2e ce 56 3d ac 1d 4e bd 23 11 da 3d
       0.022356577 0.052442722 -0.050321266 0.106478
000160 f3 4a 8b 3d 03 f1 8f bd 2e 99 75 3d a4 30 bd 3c
       0.06801405 -0.07028391 0.059960537 0.023094483
000170 76 f5 f9 3d 50 f5 38 3c 06 d5 2f bd 7c f4 28 be
       0.12205021 0.011288956 -0.042927764 -0.16499513
000180 81 8b b3 bd 94 36 b3 bd c4 25 8c 3d f7 7a 09 3d
       -0.08766843 -0.08750644 0.06843141 0.033564534
000190 26 da 8c bd ca ab 79 bc 8a e9 66 3c 94 e8 a7 3c
       -0.06877546 -0.015238712 0.014093766 0.020496644
0001a0 4f ce cd 3c e7 98 1c 3c fd 73 41 be d3 62 f6 bd
       0.02512279 0.009557939 -0.18891902 -0.12030568
0001b0 4b 00 01 3c d1 9f c9 bd 51 8f c0 3d 91 25 05 be
       0.007873605 -0.09844936 0.094023354 -0.13002612
0001c0 75 71 98 bd b1 97 74 3d 0e ab b8 bc 14 fd a5 bc
       -0.07443515 0.059714977 -0.022542503 -0.020262279
0001d0 7e c6 c8 3d 94 d1 6f bc 80 53 44 ba 60 7b 38 3c
       0.098034844 -0.01463737 -0.0007489249 0.011259884
0001e0 87 c7 d9 bc 0f 72 b6 3c 93 e1 80 3d 45 a6 64 bd
       -0.0265844 0.022271184 0.06293025 -0.05582263
0001f0 44 c5 10 bd aa da 11 be 35 5b 6d 3c fa 05 62 be
       -0.035344377 -0.1424357 0.0144870775 -0.22072592
000200 8d 33 59 be ce 1d 72 bc e5 c6 bd 3d ae 2d d7 bd
       -0.21211071 -0.014777614 0.09266452 -0.105067596
000210 af 95 1b be b8 f9 94 bc 22 07 77 bc 93 c2 f4 bd
       -0.15193819 -0.018185481 -0.015077384 -0.119511746
000220 6b 69 2f be fb e5 98 3d b2 45 d0 3b 22 41 12 be
       -0.17130058 0.0746574 0.0063559646 -0.14282659
000230 c9 f3 7e 3c 79 b8 34 3d 77 20 a1 bd 04 c8 ea bd
       0.015561053 0.04412124 -0.0786752 -0.11463931
000240 13 29 54 3d b5 6d fe bc 59 34 76 3c 84 a7 e4 3b
       0.051796984 -0.031058172 0.015027129 0.006977977
000250 7f 82 28 bd d7 2e 28 bd eb b2 e6 bd a3 fd 89 bd
       -0.041140076 -0.041060295 -0.11264595 -0.067378305
000260 b6 88 80 3b f4 78 08 be ea fa 16 3e 29 f6 e2 3d
       0.003922547 -0.1332739 0.14744154 0.110821076
000270 15 ce ab 3d 1b 0c 4b bd bb 5a a1 bd 7c bc 83 3d
       0.083889164 -0.04957209 -0.078786336 0.06432435
000280 20 0c d4 3d 8b c4 e8 3d 63 96 9f bd fc c7 02 be
       0.10353875 0.113656126 -0.07792356 -0.127716
000290 96 12 d4 3d f3 49 aa 3d 35 46 06 3e 27 5b ba bd
       0.103551075 0.08314886 0.1311272 -0.09099417
0002a0 78 8c 40 bd b5 90 1f bd 95 fc 01 bc f6 40 31 bd
       -0.04700896 -0.038956363 -0.007933755 -0.043274842
0002b0 a2 f8 d1 bd c9 af 06 3c 7f 27 26 be 93 01 5a 3b
       -0.10252501 0.008220621 -0.16226004 0.0033265098
0002c0 6a 5b 5d bc 80 4d 88 3d 8d 45 06 be 2f 06 1d be
       -0.013510564 0.06655407 -0.13112469 -0.1533439
0002d0 ca a5 03 3e 0a de 78 bc 6c 5d 06 be 5f be 8d 3c
       0.12856212 -0.015189657 -0.13121575 0.01730269
0002e0 4c 66 f0 bd fe 6c 4e 3c 75 c7 10 3d 0c eb 85 bc
       -0.117382616 0.012599228 0.035346467 -0.01634743
0002f0 74 88 8b bd 8b 6e ff bd d9 e5 f1 bd a4 de 8f bd
       -0.06813136 -0.12472256 -0.11811418 -0.07024887
000300 5f 61 ba bd a2 89 40 3d df f9 37 3d 8c a5 1d be
       -0.09100603 0.047006257 0.04491603 -0.15395182
000310 8c ac da bd 12 fc 35 be 58 33 a0 bd 7a 54 35 bd
       -0.10677442 -0.17771938 -0.07822293 -0.044270016
000320 4a 9b 19 be cf f0 7f bd ae 75 6f bd 87 6c f4 bd
       -0.15000644 -0.062485512 -0.058461837 -0.119347624
000330 28 7e 12 be 31 88 41 bc ad 22 e2 bc 5c 50 77 bd
       -0.14305937 -0.011812256 -0.027604425 -0.06037937
000340 91 7d 3b be c7 95 08 bc 9c ba 8b bd 72 5a 58 bc
       -0.18309619 -0.008336491 -0.06822702 -0.013205158
000350 e8 36 db 3d 9c 8d 2f be 07 b7 d2 bd bc d2 cc bd
       0.10703832 -0.17143863 -0.10288816 -0.10001132
000360 a2 9d c8 b9 bf 11 43 be bd 71 1e be e0 fc 2d 3d
       -0.00038264418 -0.19049738 -0.15473075 0.04247749
000370 7a e8 9f bd e8 6f 21 be f5 4c fd 3c a9 d2 b5 bc
       -0.07808013 -0.15765345 0.030920485 -0.022195177
000380 e2 92 50 bb 46 d8 0e be cc 9a 05 be 06 c5 60 3d
       -0.003182583 -0.1394969 -0.13047332 0.054875396
000390 07 06 17 3d 0f 09 28 be da 8d 1a bd d6 70 2e be
       0.036870982 -0.16409706 -0.037732936 -0.17035231
0003a0 3f 03 98 bd 3e 02 bd 3c 77 22 14 3d 37 db 6b ba
       -0.07422494 0.023072358 0.03616568 -0.0008997204
0003b0 f7 71 07 be 85 6b 4f bc de e4 36 3d 5e 25 a4 3b
       -0.13227068 -0.012659912 0.04465186 0.0050093373
0003c0 b9 c3 b5 bd 46 74 ba 3b 53 53 86 3d 89 1c 05 be
       -0.08875222 0.0056901304 0.065588616 -0.12999167
0003d0 f0 e7 66 3d 3e 26 98 3c 23 70 bc ba 83 73 ac bd
       0.056373537 0.018572923 -0.0014376681 -0.084204696
0003e0 a0 7e c5 3c 66 4f ab 3c bb d3 c0 3c 51 bd fd bc
       0.024108231 0.020911884 0.023538461 -0.030974062
0003f0 58 d4 a7 bd 79 2b 2f be 27 45 a3 3c 9a 47 08 be
       -0.08194798 -0.17106427 0.019930435 -0.13308564

action_head.bias f4 [36]
000000 0c 12 cb 3b bc d9 9a bc 90 51 0e be 62 40 0e be
       0.0061972197 -0.018902652 -0.13898301 -0.13891748
000010 c6 7a 42 3c c3 e2 0b bd 55 37 06 be de 33 a0 3d
       0.011870092 -0.034151804 -0.13107045 0.07822393
000020 03 a6 e1 bd 2b fe ba bd e4 b4 b4 bd c7 de ed bd
       -0.11017992 -0.0913051 -0.08823565 -0.11614757
000030 5c 79 cd bd b9 21 09 bd e7 84 c1 bc 94 35 f3 bd
       -0.10032913 -0.033479426 -0.023622943 -0.118754536
000040 0a 6e 1a 3c e5 13 12 3d 7b ec c1 bd 83 01 0d bd
       0.009425649 0.035663504 -0.09468933 -0.03442527
000050 e4 49 ff bd 3f ab 02 be 70 e9 df bd ee ac 92 3d
       -0.124652654 -0.12760638 -0.109331965 0.0716189
000060 93 82 0d bd 32 58 84 bd e2 f6 da bc 24 f2 23 3d
       -0.034548353 -0.064621344 -0.026729051 0.040025845
000070 5b 89 6e bd 08 25 8b 3d 53 20 c6 3c c7 f6 1a 3e
       -0.05823646 0.067941725 0.024185335 0.151332
000080 b4 7c a2 3d a3 ef a7 bc 3c 2d 57 3d 71 91 12 3e
       0.079339415 -0.02050001 0.052533373 0.14313294
