rl_trainer/models/olympics-curling/run2/trained_model/critic_1500.pth (torch, 232415 bytes, 3 tensors)

linear_in.weight f4 [64, 900]
0	0x3d0171b3	0.031602573
1	0xbd9ed2d3	-0.07755055
2	0xbd93a7f2	-0.072097674
3	0xbc4a971f	-0.012365132
4	0xbd0f648b	-0.035007995
5	0xbd177c24	-0.036983624
6	0xbc847873	-0.016170716
7	0xbd7c51ce	-0.061601453
8	0xbc640f72	-0.013919698
9	0x3c9a9048	0.018867627
10	0xbad7a449	-0.0016452159
11	0x3d0656dd	0.032797683
12	0xb9df2141	-0.0004255865
13	0x3ceaa57e	0.028643366
14	0x3cc393f6	0.023874264
15	0xbb289c1c	-0.0025727814
16	0xbd0a40f6	-0.033753358
17	0xbd023f11	-0.031798426
18	0xbcde1d0b	-0.027113458
19	0xbcb1815f	-0.021668134
20	0x3d4b63e5	0.049655814
21	0xbbffd214	-0.0078070257
22	0xbca8f153	-0.020622885
23	0xbdf944a4	-0.12171295
24	0xbd9f0d69	-0.0776623
25	0xbc8a914b	-0.016914984
26	0xbca247f8	-0.019809708
27	0xbd175c17	-0.036953058
28	0xbc42a60f	-0.011880412
29	0x3d2b2040	0.041778803
30	0x3d70de9f	0.058806058
31	0xbad826d3	-0.0016491063
32	0x3ca561c6	0.020188224
33	0xbb799104	-0.003808082
34	0x3c65c6eb	0.0140244765
35	0x3b6ce29b	0.003614581
36	0x3c9a23be	0.018815871
37	0x3c96853c	0.018374078
38	0xbd0744ea	-0.033024706
39	0x3cb48feb	0.022041282
40	0xbc87e41e	-0.016588267
41	0xbcb784b5	-0.022402147
42	0x3d0fa492	0.035069056
43	0x3c472d06	0.0121567305
44	0xbd0f1f5e	-0.034942023
45	0x3c6d020d	0.014465821
46	0xbc674f18	-0.0141179785
47	0xbc9db31e	-0.019250449
48	0xbd5da095	-0.05410822
49	0xbbdc7985	-0.0067283534
50	0xbc3b0a19	-0.011415982
51	0x3ce88903	0.028385645
52	0xbcc3439e	-0.023835953
53	0xbc7dfcee	-0.015502198
54	0xbd24f6b5	-0.04027434
55	0x3b71ae4d	0.0036877573
56	0x3c6a2465	0.014290904
57	0xbcb19bfb	-0.021680823
58	0xbcf188c6	-0.029484164
59	0x3bba0a72	0.0056775147
60	0x3c09648c	0.008385789
61	0xbc6c9ddf	-0.014441936
62	0xbd0698c3	-0.03286053
63	0x3d4542cb	0.048159402
64	0x3b851629	0.0040614796
65	0x3cfa3365	0.030542085
66	0xbd467571	-0.048451845
67	0xbae1fb9a	-0.0017241121
68	0xbd274832	-0.040840335
69	0x3d4610e0	0.048355937
70	0xbba1b2e9	-0.004934658
71	0x3b6a5d25	0.0035761085
72	0x3c6155c4	0.013753358
73	0xbce12002	-0.027481083
74	0xbbf6b878	-0.0075293146
75	0xbd52ac3e	-0.051433794
76	0xbc014a61	-0.0078912685
77	0xbd3633fe	-0.044483177
78	0x3c329af0	0.010901198
79	0x3ce381cd	0.027771855
80	0x3c00586c	0.007833581
81	0xbd0d0a61	-0.034433726
82	0x3bde6dc9	0.0067879898
83	0xbd839022	-0.064239755
84	0x3c8e6d60	0.017386138
85	0xbcae8d9b	-0.021307757
86	0xbc64e924	-0.013971601
87	0xbd41534f	-0.04719859
88	0x3c24e6fe	0.010064838
89	0x3d4d46ab	0.050116222
90	0x3bac26d4	0.005253652
91	0x3c8a59dc	0.016888551
92	0xbd4a85b7	-0.049443927
93	0x3b82ec12	0.003995427
94	0x3cab850c	0.020937465
95	0xbc397a97	-0.011320732
96	0xbc09e513	-0.008416432
97	0x3c2d8b5e	0.01059231
98	0x3c0e56a9	0.008687654
99	0x3d2b5821	0.041832093
100	0xbcef0f76	-0.029182177
101	0xbcf400a9	-0.029785471
102	0x3d4038c9	0.046929155
103	0x3d13fa22	0.036127217
104	0xbb4918ec	-0.003068502
105	0xbc70beaa	-0.014693895
106	0xbccd8aae	-0.025090542
107	0xbbab7c1b	-0.0052333004
108	0xbcffb0bb	-0.031212201
109	0xbd00aab6	-0.031412803
110	0x3cb15c84	0.02165056
111	0xbb259586	-0.0025266125
112	0xbcf12605	-0.029437074
113	0x3c412cbb	0.01179045
114	0xbc8d413e	-0.017243024
115	0x3bb6acf6	0.005574818
116	0x3d0c7a59	0.034296367
117	0xbcb5b57c	-0.022181265
118	0x3d49370b	0.04912476
119	0xbcd50d87	-0.026007427
120	0xbc51a506	-0.012795692
121	0x3ceb5ab7	0.02872978
122	0xbafc864b	-0.0019266097
123	0x3c0e613b	0.008690174
124	0x3d13fe2b	0.036131065
125	0x3d4c09ec	0.04981415
126	0x3d2bbd3a	0.041928507
127	0xbc2ec8f7	-0.010668031
128	0x3cf5ad12	0.029989753
129	0x3cf48aed	0.029851401
130	0xbc3485b2	-0.011018204
131	0x3cde78d3	0.027157223
132	0xbc9c3468	-0.019067958
133	0xbd1e0af8	-0.03858468
134	0xbd269692	-0.04067094
135	0x3b8b8b47	0.0042585465
136	0xbce57c9a	-0.028013516
137	0x3cca5729	0.024699764
138	0x3c3b4765	0.011430596
139	0x3cce0efd	0.025153631
140	0xbd08315b	-0.033250194
141	0xbcb83b62	-0.022489253
142	0xbd294c36	-0.041332446
143	0xbd6f2092	-0.05838067
144	0xba3d66c5	-0.00072250917
145	0xbbf8d958	-0.007594269
146	0x3c5f8db0	0.013644621
147	0xbd12c372	-0.035830922
148	0xbc0cfb43	-0.008604827
149	0x3d24f5f5	0.040273625
150	0xbc08dc40	-0.008353293
151	0x3cf35bff	0.029706953
152	0x3ca0577d	0.019572968
153	0x3bf93fe5	0.007606494
154	0x3ad6f1d9	0.001639898
155	0xbc6eea5b	-0.014582242
156	0x3c1350ad	0.008991403
157	0x3cb82c23	0.022481984
158	0x3d19ac4a	0.037517823
159	0x3ce1646b	0.027513703
160	0xbd1875ac	-0.037221596
161	0xbcf1fab7	-0.029538495
162	0xbbb85908	-0.0056258477
163	0xbd5b6cf0	-0.053570688
164	0xbd0e2aa3	-0.03470863
165	0xbc9cef06	-0.019156944
166	0xbcbc98ac	-0.023022018
167	0xbd04be2e	-0.032407932
168	0xbcd9728b	-0.026543876
169	0x3b3d4e2d	0.0028885708
170	0xbda22d63	-0.07918813
171	0xbbe7bfdd	-0.0070724324
172	0xbd0193b7	-0.031635012
173	0x3c93a38a	0.018022317
174	0x3cd6234d	0.02613988
175	0xbc9efc6e	-0.019407477
176	0xbce82712	-0.028338943
177	0xbd86bd4d	-0.06579075
178	0x3c6b1bdf	0.014349907
179	0x3d74c311	0.059756342
180	0xbced18cd	-0.02894249
181	0x3bd0df1f	0.0063742544
182	0xbc7b83a5	-0.015351211
183	0xbb007863	-0.0019603006
184	0x3ae6ca25	0.0017607851
185	0x3d0bc433	0.034122657
186	0x3c3ffa13	0.011717337
187	0xbcf06e7f	-0.029349564
188	0xbcdf51ac	-0.027260624
189	0x3cd0f6c3	0.02550829
190	0xbc15ce93	-0.009143489
191	0xbd6dda52	-0.058069535
192	0x3d1b51df	0.037919875
193	0xbcb95624	-0.022624083
194	0xbcef0400	-0.029176712
195	0xbcc830d3	-0.024437344
196	0xbcbba44d	-0.022905493
197	0xbd15b22c	-0.03654687
198	0xbd29c8a6	-0.04145112
199	0xbd42e314	-0.04757984
200	0xbc7042ec	-0.014664393
201	0xbd46e55a	-0.04855857
202	0xbd0809b8	-0.033212394
203	0x3c11c5fc	0.008897301
204	0x3bcc6932	0.006238126
205	0xbc20ba81	-0.009810091
206	0xbbd44155	-0.0064775147
207	0x3bf2a3b0	0.007404767
208	0x3c762dee	0.015025599
209	0x3d886908	0.06660658
210	0xbc39d9c6	-0.011343425
211	0x3d00b981	0.03142691
212	0xbbd3b646	-0.0064609377
213	0xbc6f4ee2	-0.0146062095
214	0xbb90763e	-0.004408627
215	0x3cb174cb	0.021662137
216	0xbbf60068	-0.0075073726
217	0xbb70a1c7	-0.003671752
218	0x3c4d9d2a	0.012549678
219	0x3cd03ccf	0.02541962
220	0xbc7d08c4	-0.015443984
221	0x3c3014e8	0.010747172
222	0xbc9e87b4	-0.019351818
223	0xba2bd2c0	-0.00065545365
224	0xbc3b1f56	-0.011421045
225	0xbbcb8e2f	-0.006212018
226	0xbd45da8d	-0.04830413
227	0xbcf7e35d	-0.030259782
228	0xbd5cdffc	-0.053924546
229	0xbd9ac174	-0.075564295
230	0xbd172825	-0.03690352
231	0xbd0103e0	-0.031497836
232	0xbc78702f	-0.015163465
233	0xbc96cfc1	-0.018409612
234	0xbd8baaa8	-0.068196595
235	0xbd1fec15	-0.039043505
236	0xbd6d2c70	-0.057903707
237	0x3bd7c4cf	0.0065847407
238	0x3d481d3c	0.048856005
239	0x3c816f87	0.01580025
240	0x3c18daf6	0.009329548
241	0xbcc2dfc7	-0.023788346
242	0x3c1a796e	0.009428365
243	0xbc4e3fed	-0.012588483
244	0x3ca5a06d	0.020218099
245	0x3c4caf8f	0.012493028
246	0xbcc3e5c2	-0.023913268
247	0xbcb53fba	-0.022125114
248	0x3caed624	0.021342345
249	0xbcd96a64	-0.026539989
250	0xbc76dc48	-0.015067168
251	0x3d612bf0	0.054973543
252	0x3d2c7815	0.042106707
253	0xbc9cf797	-0.019161029
254	0x3c5c18d0	0.01343365
255	0xbd3dbb51	-0.046321217

linear_in.bias f4 [64]
0	0x3e737603	0.23775487
1	0xbe022e46	-0.12712964
2	0xbdc9e3e1	-0.098579176
3	0x3e5f8258	0.21827066
4	0x3d949dbb	0.07256647
5	0x3e43ab05	0.19108208
6	0x3e78e995	0.24307854
7	0xbd3c14ac	-0.04591815
8	0x3d9646fc	0.07337758
9	0x3d6bbfd7	0.057556
10	0xbd9de98e	-0.07710563
11	0x3d309f5b	0.043120723
12	0xbe4646af	-0.19362901
13	0xbe2a2bc2	-0.16618255
14	0x3cef06ae	0.02917799
15	0xbdbdd64b	-0.09269389
16	0xbda5d34a	-0.08096941
17	0x3e1a4d4c	0.15068549
18	0x3e7a78e1	0.24460174
19	0x3e6e7925	0.232884
20	0xbccfd7a8	-0.025371388
21	0x3e171131	0.14752652
22	0xbdd99f44	-0.10626081
23	0xbd28a242	-0.041170366
24	0xbe4d4fb7	-0.2004994
25	0xbdd87fb5	-0.10571233
26	0x3e306fb6	0.17230114
27	0x3d9deeca	0.07711561
28	0xbe50c0e2	-0.20386079
29	0x3d599516	0.053120695
30	0x3e6f12ff	0.2334709
31	0x3d1e55b2	0.038655944
32	0x3dd24bbd	0.10268352
33	0xbda82d71	-0.08211792
34	0x3e145437	0.1448525
35	0xbdc8b041	-0.09799243
36	0x3e52a57f	0.20570944
37	0xbe2cd5ea	-0.16878477
38	0xbe5a1cee	-0.21300098
39	0x3e014b99	0.12626494
40	0x3d8bcd8b	0.068263136
41	0xbd8d17b8	-0.068892896
42	0x3de79e7a	0.11309524
43	0x3ddadc62	0.10686566
44	0x3e53fe39	0.20702447
45	0xbd84378d	-0.06455908
46	0xbda15be2	-0.078788534
47	0xbdff3d75	-0.12462894
48	0x3e7b74a7	0.24556218
49	0xbdc1aecf	-0.0945717
50	0xbdd0c67d	-0.10194109
51	0x3e14e589	0.14540686
52	0x3d8de8cb	0.06929167
53	0x3dbac1ee	0.091190204
54	0x3e80b73f	0.25139806
55	0x3d4cbce9	0.049984846
56	0xbe49b319	-0.19697227
57	0x3e5c3cad	0.21507521
58	0xbe3a4b1c	-0.18192714
59	0xbd30c17d	-0.043153275
60	0xbd82a82c	-0.063797325
61	0x3e450439	0.19239892
62	0xbe0d109a	-0.13775864
63	0x3d8ec00b	0.06970223

state_value.weight f4 [1, 64]
0	0x3d2f1b6e	0.04275077
1	0xbd8b7008	-0.06808478
2	0xbe1e95c1	-0.15486814
3	0x3dbc39d2	0.09190716
4	0x3d0aed87	0.03391793
5	0x3d223091	0.039597098
6	0x3d952531	0.07282484
7	0xbe06bd63	-0.13158183
8	0x3e3f15c9	0.18660654
9	0x3e341b80	0.17588615
10	0xbdc8a0e9	-0.09796316
11	0x3d9b4856	0.07582156
12	0xbece8e9f	-0.40343186
13	0xbea6783e	-0.32513613
14	0x3e864935	0.26227728
15	0xbda40b63	-0.08009984
16	0xbd870325	-0.06592397
17	0x3dcab5cb	0.098979555
18	0x3d13e637	0.03610822
19	0x3d7c9580	0.06166601
20	0xbdea2a6c	-0.114338726
21	0x3d4deae2	0.05027283
22	0xbdcf7a5a	-0.101307586
23	0xbd6e25d1	-0.058141533
24	0xbed13542	-0.40860945
25	0xbe1c026e	-0.15235302
26	0x3d3d7abe	0.046259634
27	0x3e12e9d3	0.1434701
28	0xbe9b53f0	-0.30337477
29	0x3e1f272b	0.15542285
30	0x3d75c92c	0.060006306
31	0x3e0dd928	0.1385237
32	0x3d9ac81c	0.07557699
33	0xbdb3ba37	-0.08775752
34	0x3d9af8f3	0.075670145
35	0xbe28bd37	-0.1647843
36	0x3daf31ba	0.085544065
37	0xbed31170	-0.4122424
38	0xbe5a83a7	-0.21339284
39	0x3daf60ab	0.0856336
40	0x3d3ba327	0.04580989
41	0xbe04707b	-0.12933533
42	0x3dce4f5d	0.10073731
43	0x3ddeefb4	0.108855635
44	0x3d80f379	0.06296439
45	0xbdd7de10	-0.10540402
46	0xbdd2b14c	-0.10287723
47	0xbe1f7e10	-0.15575433
48	0x3de9e54d	0.11420689
49	0xbe54eb12	-0.20792797
50	0xbdd75bd1	-0.105155595
51	0x3e3035d9	0.17208041
52	0x3e113289	0.14179434
53	0x3c5466f7	0.012964002
54	0x3d89e3ee	0.06732927
55	0x3d88ff2d	0.06689296
56	0xbe04cd9a	-0.12969056
57	0x3d5b45d9	0.05353341
58	0xbe5a01dc	-0.21289772
59	0xbe01823c	-0.12647337
60	0xbddd7f76	-0.10815327
61	0x3ce3017a	0.027710665
62	0xbde818bd	-0.113328435
63	0x3cc93f74	0.02456639
