rl_trainer/models/olympics-curling/run4/trained_model/actor_3700.pth (torch, 241503 bytes, 4 tensors)

linear_in.weight f4 [64, 900]
00000000: a09e 91bc 2a82 19bd c95d 07bd 51fd e0b8
00000010: 2e12 1abd 6fb7 423d 20d6 d1bb 0887 bb3c
00000020: 48ee 033b 89dc 14bd 43bb ceb9 a5e0 8bbd
00000030: 206b 3cbc 390d 11bc 73ca aa3c d415 a2bb
00000040: d7bb 0fbd 95dc 26bd 1248 063d 4d68 3a3c
00000050: c411 033d f8eb 8f3c 26ad 6c3c 9d9d 5bbc
00000060: 9926 303d b3c1 0c3d fae7 243d f87a 9d3d
00000070: 7414 8abd 9ece 56bc 0b64 f83b cc86 8f3a
00000080: 6c34 e63c f550 c2bc 963d 8dbc 2ead d7bc
00000090: 4f09 8e3d e31e cb3c f241 413d c1e2 343c
000000a0: 8ba3 473d 7eea f3bc 368a b9bc 81ae bd3c
000000b0: aff3 f8ba 98c9 0b3c 2a7b 01bd 1e80 90bb
000000c0: 6456 8e3c 0a4e 073d 22ca 61bc f046 65bc
000000d0: e780 183d fda6 823d 3a32 913d 852c 3b3d
000000e0: 5f9d bf3c d4c4 9b3b 804f 8d3c ebd6 c6bc
000000f0: 7c5b b0bc dbf7 883b 71a6 803b 72da 833d
00000100: deb9 333c 9e2c b53b 39ef 183d f7a2 293d
00000110: 52cc 0d3b 1923 35bd 8d00 0e3d f966 ca3c
00000120: f260 4ebb 2159 e3bc 6643 85ba 78e2 ad3b
00000130: 5abb 343d 082e 953c 5b23 a4bb 5dc6 9d3d
00000140: b2de e0bc ca31 10bd 063d 03bc 8f1e 063d
00000150: 7f9f 193d da62 003c db05 073c 7164 dbb9
00000160: 49e7 ae3b 6552 2dbc 671a 7d3d 45d7 e5bc
00000170: 8553 fa3c 89e2 2e3d 5a01 7a3c 6a97 d93b
00000180: 7d09 973d ec46 efbb 8549 eebc 52f0 b3bc
00000190: f4b4 893a e24f a0bc f265 333d c7a5 563b
000001a0: a2f7 b3bc 28d1 cfbc 6a64 da3d f066 963d
000001b0: 1c4f 6c3d a58c 823c 235d 3b3d 7a17 553d
000001c0: f9ed 2cbc f605 23bd 1a1a b5bc cbcc a73d
000001d0: eb75 3c3d d348 323d 25eb ffbc 6f6a f8bc
000001e0: 4c85 4cbc 273d 7e3d 0b27 cc3c 254c a23a
000001f0: 24f3 f8bc 443a 2bbd 3703 9cbc 031a d43c
00000200: fdd6 3d3d 1228 5c3a c864 e2bd c597 22bd
00000210: e905 2f3d 4a38 6a3d 41f1 503d c5f2 3fbc
00000220: f001 f63c 6bae 993d 764c 8fbb 9852 53bd
00000230: 8111 42bd b0c0 a93c fb55 32bd 37f7 a3bc
00000240: 06de 9b3c deaf 64bb 2d75 5f3d e314 e03d
00000250: 4944 9d3d 1f15 503c 411f 59bd a776 2f3d
00000260: 7011 d03c 1163 073b 900c 96bd 4233 86bd
00000270: a57e 71bc 66ac 37bd a9f6 4a3d 8fc0 27bd
00000280: a1bd 0bbe ea81 2cbd 87ef c93c fa07 543d
00000290: 828c 4f3d f6fa aa3c 0bee 26bd 4e26 f4bb
000002a0: 34cf f53c 4585 48bd da51 23bc 9860 1f3d
000002b0: 7f46 dd3a fe1e fcbc c038 373d 35fd aa3d
000002c0: 3e09 8b3d 9ad3 bd3d 1d75 293c 0bf9 043d
000002d0: fef0 22bd 5d34 11bd 9c2b 84bc b618 103c
000002e0: 7bb7 cfbc 66f3 db3c 0b30 43bd 5447 a43a
000002f0: c8dd 323c c9d1 44bd 5077 40bd d515 bfbc
00000300: f750 4abd 4033 133c a25b e83c 7344 02bb
00000310: a30b 6abc 01fd ba3c 9c41 613d 7e64 7fbc
00000320: a06b 903c 7f38 2abd 1006 193d 0b6c 18bd
00000330: 8e9c 903d 7e14 2c3d 120c d93b b79d 883c
00000340: c6eb 913b 0db3 aa3b 9f8a 82bc be72 353d
00000350: 7735 ca3c 8aa2 7a3d 2d5c 603d 26f7 173d
00000360: a5a1 983d 1d05 a23b 9491 ed3c 7144 2c3d
00000370: c950 763c 4e04 993d cc70 833b ee3d abbc
00000380: 9df6 4b3c e788 dfbc e97f b43c 3a2f 853c
00000390: 7fb5 563d 2db3 4b3d fe8d 143c 2941 7abc
000003a0: f919 b23d 557d 8d3c 9dcc 4b3d 64e7 dd3c
000003b0: 89a6 47bd cece 0bbc c48c aa3b 26e5 31bd
000003c0: 712b 363c 6f8f cf3c db05 833d 20a8 0dbc
000003d0: 22b6 56bd efab bcbb a8e7 d1bc 2d44 c0bc
000003e0: 0454 f93b 97b0 363d 1a81 8e3d 60c8 073d
000003f0: 2a91 1b3c 8a20 643c 4846 e13b 513e 683c
-0.017775834 -0.03747765 -0.033048425 -0.00010728336 -0.037614994 0.047538217 -0.0064036995 0.022891536
0.002013104 -0.03634313 -0.00039430903 -0.06829957 -0.01150015 -0.00885325 0.020848488 -0.00494645
-0.035091247 -0.040737707 0.032783575 0.011377406 0.031999364 0.017568573 0.014445579 -0.013404277
0.04300556 0.034364413 0.040260293 0.0768947 -0.067421824 -0.013110785 0.0075802854 0.0010950207
0.028101169 -0.023720244 -0.01724128 -0.026327696 0.06935369 0.024795001 0.04718203 0.0110403905
0.04873995 -0.0297749 -0.022648912 0.023154499 -0.0018993522 0.00853195 -0.0316116 -0.004409804
0.017375179 0.03303341 -0.013781102 -0.013993964 0.037232306 0.06379507 0.07089658 0.045696754
0.02339047 0.0047536884 0.017249823 -0.024272403 -0.021527998 0.0041799373 0.0039260914 0.064381495
0.010969607 0.0055290004 0.037337516 0.04141518 0.0021636677 -0.044222925 0.034668494 0.024707304
-0.003149089 -0.02775246 -0.0010167181 0.005306538 0.044123985 0.018210426 -0.0050090975 0.077038504
-0.02744994 -0.035203733 -0.008010155 0.032743987 0.037505623 0.007836068 0.008241142 -0.0004184577
0.00533763 -0.010578726 0.061792757 -0.02805675 0.030557403 0.04269651 0.015259111 0.0066403644
0.073748566 -0.0073021557 -0.029087791 -0.02196518 0.0010506199 -0.019569341 0.043798395 0.003275262
-0.021968666 -0.025368288 0.10663684 0.073438525 0.057692632 0.015936205 0.04574312 0.052024342
-0.010554784 -0.039800607 -0.022107173 0.08193358 0.046010893 0.04352648 -0.031240055 -0.030324189
-0.012482952 0.06207004 0.02492096 0.0012382312 -0.030389376 -0.041803613 -0.019044502 0.02589131
0.046347607 0.0008398305 -0.11054379 -0.03969552 0.042730246 0.057182588 0.051011328 -0.011715596
0.03003022 0.07503971 -0.0043731285 -0.05159244 -0.047379974 0.020721763 -0.04353903 -0.020015342
0.019026767 -0.0034894864 0.054555107 0.10941484 0.0767904 0.012700348 -0.05300832 0.042837765
0.02539894 0.0020658413 -0.07326615 -0.065527454 -0.014739667 -0.044842146 0.04955164 -0.040955123
-0.13646556 -0.042116083 0.024650348 0.05176542 0.050671108 0.02087162 -0.04075436 -0.0074508553
0.030006029 -0.04895522 -0.009968245 0.03891048 0.0016881971 -0.030776497 0.044731855 0.08349077
0.06788872 0.092688754 0.010342863 0.03246407 -0.03978061 -0.03545033 -0.016134076 0.008794954
-0.025356045 0.02684946 -0.04765324 0.0012533464 0.010917135 -0.04805163 -0.046988785 -0.02332584
-0.04939362 0.008984387 0.028364006 -0.0019877225 -0.014285001 0.02282572 0.05499421 -0.015587924
0.017629445 -0.041557785 0.037359297 -0.037212413 0.070611104 0.04201173 0.0066237533 0.016676767
0.004453155 0.005209333 -0.01593524 0.04429888 0.024683697 0.061190166 0.054775406 0.037100933
0.07452706 0.004944457 0.029000081 0.04205746 0.015033909 0.07471524 0.004011249 -0.020903554
0.012448934 -0.02728696 0.022033649 0.016257871 0.052419182 0.049731422 0.009067057 -0.015274324
0.0869636 0.017271677 0.04975568 0.027087875 -0.048742805 -0.008533193 0.005204769 -0.043431424
0.011118756 0.02533695 0.06397601 -0.008646041 -0.05241979 -0.005757801 -0.025623158 -0.023470009
0.0076088924 0.044602003 0.06958218 0.033150077 0.009495059 0.013923774 0.0068748333 0.014175014

linear_in.bias f4 [64]
00000000: e16f 523d 2fd2 95ba db51 1b3d 4d15 eabb
00000010: ff9f 1dbd 72b0 783d e2f6 74bd 027a f83c
00000020: 3916 64bc be2d acbc 3dd2 393c dbb1 98bc
00000030: 085f 92bd 76ff c6bc 9296 c6bc d55d 8738
00000040: 3b13 a23c ab37 82bb ea85 c0bc eff1 c13c
00000050: 6ec5 c0bb 31f4 4e3d 1136 a93d 7af4 db3c
00000060: 7de8 f13c 0922 81bd 7011 3abd e81c 1b3d
00000070: 14e5 83bd bdd7 903c ca7a d23b 36d4 053b
00000080: fc58 0c3d 22fa 983d fe4f d8bd 4115 963d
00000090: 94c6 3d3d e3cd bdbc 993b 7c3c 5168 9a3c
000000a0: 5b79 643d 8685 20ba 0441 a4bc 9f21 7b3d
000000b0: 539c 4cbc f7c9 473d d84f 5bbd b744 de3c
000000c0: 2bce 013d 5377 813d af03 11bd b634 8a3c
000000d0: 49e4 1abd 162c d53c 23db 313c 4b77 a5bc
000000e0: 9d7d 5a3a 83bc 87bd 5214 3e3d 6cca 1f3d
000000f0: 2bfd c33b 3a3e efbc 2533 eebb 4cda 6b3d
0.051376227 -0.0011430437 0.03791986 -0.0071436525 -0.038482662 0.060715146 -0.05980576 0.030331615
-0.013921314 -0.021017905 0.011341629 -0.018639496 -0.07147032 -0.024291735 -0.02424172 6.454779e-05
0.01978456 -0.0039739213 -0.023501355 0.023674933 -0.0058829105 0.050525848 0.082622655 0.026849974
0.029529804 -0.0630532 -0.045426786 0.037869364 -0.064401776 0.017680997 0.006423329 0.0020420677
0.03426455 0.07469584 -0.10562132 0.073282726 0.046331957 -0.023169464 0.015395069 0.01884857
0.055779796 -0.0006123412 -0.020050533 0.06131136 -0.0124884425 0.048776593 -0.05354294 0.027132375
0.031690758 0.063215874 -0.035403904 0.016870838 -0.037815366 0.026021998 0.010855469 -0.020198485
0.0008334758 -0.06627753 0.046406098 0.039011404 0.0059811077 -0.029204477 -0.0072692805 0.05758123

action_head.weight f4 [36, 64]
00000000: dc22 3a3d 4cfb 033e bff2 23bd af07 35bd
00000010: da14 8abc cc8d 2ebd 522e 17bd 170c 0abe
00000020: 6342 48bd 7985 1d3c 63d8 a7bd 8d62 3e3c
00000030: bc48 a73d 3b22 803d 1b3f 273d af5e e9bd
00000040: 3541 fabd fc27 a83a fad6 263d f219 013d
00000050: 8553 1e3c 6f13 f93d 4f0e cdbc 0e99 013e
00000060: 7353 05be de1f f73d 4b0e 913d 55b2 003e
00000070: f5b7 433e 5076 15be 8d22 203e 9511 4fbd
00000080: 21f5 8b3c 0183 2f3e 496a b63d 1388 0c3e
00000090: f6cf 2cbd 3cd0 203e 810b 0e3e 0a12 02bd
000000a0: 1c83 203e 37ae 533e 5ddf d1bd 8112 f63d
000000b0: e3e5 87bd 6524 67bd 465b 0d3e ad49 023e
000000c0: 86c6 c93d 119b 41bd ee36 3b3d 3c60 b43c
000000d0: eb67 3dbd 85c4 2c3d a47e 113e 2f23 7bbd
000000e0: 2be7 423e 0fd7 22bc 8cf5 5fbd 566b 873d
000000f0: 5145 b8bd 8c1e 0f3e b49b ffbd a28f f13d
00000100: 5f5a 873c c1ae d3bd ece8 813b 395d c83c
00000110: 4db0 61bd fcfa 1fbe 8d89 293d ab39 803c
00000120: 02a0 d63d 6e30 66bd 6e0d 01bd 8d1e 76bd
00000130: 354e 91bd 8cff c3bd 6e6e 36bd cba4 473d
00000140: 0118 b2bd 9840 013d 5e60 f0bc a2ab 0d3d
00000150: b062 573d 6109 3b3e cb25 97bb 7b33 b13d
00000160: e928 f03d a9ba ac3d 0471 3e3d 3e05 3d3e
00000170: 0e98 033e 5052 2b3e f104 94bd 3a34 4dbd
00000180: 1cf2 8b3d 8a0b 33be 48f0 033e 126e f33d
00000190: 3719 efbc 4293 a63d 1638 2d3c 1972 003e
000001a0: b6e7 3a3d 390b 3c3d fdbd eabd ca6e efb8
000001b0: 6821 503d 9345 90bd 37ab de3d cef9 a1bd
000001c0: 37f9 683c c245 213e 9e7c 723c 6d7d 513d
000001d0: 034c 2b3e 81fa 9c3d 3381 253e 1268 273e
000001e0: 1801 8d3c f7a2 463d 5485 c93d 1344 3f3d
000001f0: e88a e3bc 237b 85bd 8c47 263d 6c0f dbbd
00000200: b10c 64bd 29c2 643d c51d 3b3e 4728 043d
00000210: fc2b 263b c5da b03d 1269 b53c 1c3a dabc
00000220: b3d4 0cbd 64f3 2a3e d582 fe3d c8be 3dbd
00000230: e44f 9e3d 1205 8b3d 341d 883d ac93 66bd
00000240: 6224 a43d e333 013c 83d5 483c 965c 853d
00000250: 5952 18bd 98f3 efbc dc35 d53c 94c5 e4bb
00000260: ead8 c13d 1661 05bd 7554 443e ae14 0a3e
00000270: 64d2 073e 9686 813d 5417 99bd b7ce 1e3e
00000280: 9ae7 2e3e 2eb0 2f3e e4ec 12bd fbc6 84bd
00000290: 4bd0 ae3d 1b14 0d3e e0ee 293e 719a 743d
000002a0: 1a89 7abb 5cd6 a43d f1a6 913d b35e 85bc
000002b0: d74e e4bd 7cf2 e83d 8b40 16bd 0582 033e
000002c0: ca1d f73c a776 213e ad25 61bd f0ba d6bd
000002d0: 8d5e 3b3e 4e9f bf3d b2e6 c0bd 2288 2d3e
000002e0: f863 c03c 8ad4 0c3d 42ce 103e 9954 c93d
000002f0: fc67 5f3d 5c9c 18bd ec01 b5bd aa42 98bd
00000300: 8ba6 03bb 191d 023e 970c 233e ff70 89bd
00000310: 532d 26bc 420b 8fbd 4d01 21bd 2f10 b7bc
00000320: afc6 f2bc e75a 7f3d bdab 81bc 7f9f 04be
00000330: d9a4 d6bc 784f ac3d 5aee 973d c456 153d
00000340: 810e 01be 1315 1c3e c1e9 08bd 0625 f63c
00000350: b6b6 0a3e ebc7 dcbc 9c26 81bc 2cbd 26bd
00000360: 3e93 203d c94d 49bd 947f 87bd 8fab 153c
00000370: 861a c53c 157b b7bd 6f1a 033e 326e 963d
00000380: 800f b13d 45c8 55bd e0f0 08bd 2a34 f33d
00000390: 0037 c03d ecf0 a7bd 20ac 633d c154 4dbd
000003a0: 4bf5 d6bc e7a5 2a3e b8ba fb3d 2812 173e
000003b0: e06e 03bd c049 c13d a604 293e 855a 0c3e
000003c0: 3618 463d 2fae 0b3e 72eb 4d3e 471c abbd
000003d0: 0774 053e 4547 2c3e 304a 2d3e 4125 04bb
000003e0: 127a 313e 676a 803d 8bab c23d 411f 003b
000003f0: f864 81bc 7f01 68bd cf1d 523e ab1d b5bc
0.0454434 0.12888831 -0.040026423 -0.04419678 -0.016855646 -0.042615697 -0.03690941 -0.13481174
-0.048891436 0.009614342 -0.08195569 0.011620176 0.0816817 0.06256529 0.040831666 -0.113950126
-0.122194685 0.0012829299 0.04073236 0.031518884 0.009663467 0.1216191 -0.025031237 0.12656042
-0.13020115 0.12066625 0.07082804 0.12568028 0.19113143 -0.14595914 0.1563818 -0.050553877
0.01708466 0.17139818 0.08906991 0.13723783 -0.042190515 0.15704435 0.13871576 -0.031755485
0.15675014 0.20671926 -0.10247681 0.12015248 -0.06635644 -0.056431193 0.1380435 0.12723418
0.098523185 -0.047267023 0.045706682 0.022018544 -0.046241682 0.042179603 0.14208466 -0.06131285
0.19033496 -0.009938969 -0.05467753 0.066122696 -0.08997596 0.13976496 -0.1248087 0.11794974
0.016522584 -0.10336066 0.003964534 0.024458515 -0.055099774 -0.15623087 0.041390944 0.015652498
0.10479738 -0.05619853 -0.03150695 -0.06008773 -0.07094995 -0.09570226 -0.044538908 0.048741143
-0.08695985 0.031555742 -0.029342826 0.03458751 0.05258435 0.18265297 -0.0046126596 0.08652397
0.11726553 0.0843404 0.0464945 0.18459031 0.12850973 0.16730618 -0.07227505 -0.050098635
0.06833288 -0.1748487 0.12884629 0.118862286 -0.029186828 0.08133556 0.010572454 0.12543525
0.045631133 0.04590914 -0.11462019 -0.00011417044 0.05081311 -0.0704452 0.108725004 -0.079089746
0.014219574 0.15749267 0.014800219 0.051145006 0.16728215 0.07664967 0.16162567 0.16348293
0.017212436 0.04849526 0.098398834 0.04669578 -0.027776197 -0.06517627 0.040595576 -0.10696301
-0.055676166 0.055849228 0.18273075 0.032264974 0.0025355807 0.08635477 0.022144828 -0.026639037
-0.034382533 0.16694409 0.12427298 -0.04632452 0.07730082 0.067880765 0.06646195 -0.056293175
0.08014752 0.007885906 0.012257936 0.065118 -0.037187908 -0.02929096 0.026026659 -0.006981561
0.09465201 -0.03256329 0.19172843 0.13484451 0.13263851 0.06324498 -0.074751526 0.15508543
0.17080536 0.17157051 -0.035870448 -0.06483265 0.085358225 0.13777201 0.1659503 0.0597176
-0.0038228692 0.08048698 0.0711192 -0.016280508 -0.1114785 0.11374375 -0.036682647 0.12842567
0.030165572 0.15767919 -0.05496757 -0.10484874 0.18297787 0.09356557 -0.09419002 0.16946462
0.023485169 0.03438238 0.14141181 0.09830589 0.054542527 -0.03725849 -0.08838257 -0.0743459
-0.002008828 0.12706412 0.15922771 -0.067110054 -0.010142642 -0.06984569 -0.03930788 -0.022346584
-0.029635755 0.06234255 -0.015828962 -0.12951468 -0.026201652 0.08413595 0.07418509 0.0364597
-0.12603189 0.15242414 -0.03342605 0.030046951 0.13546261 -0.026950797 -0.01576548 -0.040707752
0.03920292 -0.049146447 -0.066161305 0.009135141 0.024060499 -0.08959023 0.12803052 0.07345237
0.086455345 -0.052192945 -0.03343284 0.11875184 0.093854904 -0.08200249 0.055584073 -0.050129656
-0.026240012 0.16664849 0.12291473 0.1475302 -0.03208816 0.09437895 0.1650568 0.13706405
0.048362933 0.13640665 0.20109347 -0.08355003 0.13032542 0.16824062 0.16922832 -0.0020163807
0.17331722 0.06270295 0.095053755 0.0019549879 -0.015795216 -0.05664205 0.20519184 -0.022108873

action_head.bias f4 [36]
00000000: 0aea d43d 491e a6bc 11db 7abd b9ad 5cbc
00000010: 84a5 1f3d d140 4abd 93f1 4dbd c63f 053e
00000020: d01a 4cbd 37a8 953c d8d8 a4bd 2611 87bd
00000030: 3f72 8abc 7555 33bd eba6 953c 7647 acbc
00000040: 64ec ad3d 8236 fc3d 5c93 7f3c 0153 ffbc
00000050: 63d5 0ebd f10a 13bc c73c 9ebd 00f4 323e
00000060: c927 a43d d1ac 0e3d b7f3 bb3d 29e2 593d
00000070: d20a 8cbb 9f16 323d ebf8 b83d ccc4 ce3d
00000080: e45f 5c3e 522c 983c ae7f 563e d46d 183e
0.10396202 -0.020278113 -0.061244074 -0.013469153 0.038976207 -0.04937822 -0.05027921 0.13012609
-0.049830258 0.018268688 -0.08049172 -0.06595068 -0.01690018 -0.04378267 0.01826807 -0.021030169
0.084923536 0.12315084 0.015599098 -0.031167509 -0.03487147 -0.008974777 -0.07726436 0.17475891
0.08015401 0.03483278 0.09177344 0.0531942 -0.004273751 0.043478604 0.09031852 0.1009613
0.21520954 0.018575821 0.20947143 0.14885646
