rl_trainer/models/olympics-curling/run4/trained_model/critic_3700.pth (torch, 232415 bytes, 3 tensors)

linear_in.weight f4 [64, 900]
-0.32972565 -0.36846045 -0.6155748 -0.518634 -0.32346946 -0.46434718 -0.19411406 -0.20071322
-0.38913104 -0.22224101 -0.11179851 -0.1685696 0.09204849 -0.053863823 -0.1469923 -0.13700473
0.12520137 -0.06966758 -0.15042983 -0.04641265 -0.18353012 -0.21154581 -0.16015862 -0.39812565
-0.6579399 -0.20015888 -0.24145873 -0.61362255 -0.46359488 -0.45109162 -0.1511854 -0.21975136
-0.26520702 -0.15642363 -0.24766742 -0.38630706 0.020647893 0.18293896 -0.1969839 -0.044095147
0.0057748584 -0.1814064 0.044819858 0.30785242 -0.0016503701 -0.070491366 0.19336754 0.09819891
-0.08115913 0.022068566 0.18079764 0.024362512 -0.17047825 -0.31510133 -0.5210948 -0.20988503
-0.038790092 -0.27106455 -0.26227388 -0.3091518 -0.15192157 -0.25300035 -0.32669726 0.06878444
0.012134882 -0.036660958 0.03946959 0.20375413 -0.026446214 0.13721676 -0.036614444 0.04144466
0.24071659 0.42729118 0.1872646 0.01581194 0.039703183 -0.05243715 0.20197323 0.20267244
0.4287574 0.15399419 -0.19643657 -0.13526134 -0.23425448 0.024723174 0.0897108 -0.21649967
-0.21450286 -0.3682307 0.04265356 -0.031336587 -0.10894053 0.09750727 0.22615473 0.27740702
0.32809564 0.18852882 0.16679046 0.27651992 0.040443264 0.23995987 0.2890408 0.25963223
0.24021791 0.2667526 -0.09362336 -0.007948463 0.43907362 0.39595798 0.4024853 0.24669972
0.10044409 0.1729418 0.32061386 0.08038219 0.18278405 -0.09393761 -0.104300134 -0.15776522
-0.013794459 0.08517692 0.019695189 0.18769525 0.13746466 0.38032255 0.2327829 0.12550801
0.18358667 0.1552876 0.16166694 0.380145 0.41612816 0.19002531 0.22560796 0.4978105
0.26374242 0.38683233 0.6270335 0.6050468 0.21949784 0.34604213 0.10819553 0.2910342
0.31144938 0.21103628 0.28067932 0.15029612 0.13363358 -0.055078816 0.105882786 0.1480036
0.060548957 -0.09616523 0.12555927 0.19584641 0.3799051 0.46156466 0.35442972 0.23896728
0.13214111 0.3133258 0.09708139 0.14359029 0.16230784 0.4829667 0.5655715 0.41028744
0.52324355 0.5340635 0.3030679 0.29347125 0.15983418 0.2613076 0.3616149 0.23198335
0.38158742 0.46061864 0.22629282 0.09325786 0.32283938 0.43596494 0.19692026 0.16895409
0.31137937 0.40060952 0.33349305 0.5646525 0.32142317 0.27286413 0.23435636 -0.02007467
0.049497087 0.1947105 0.21938398 0.44594088 0.55321294 0.41480598 0.35464805 0.45358464
0.34633937 0.23024374 0.13557875 0.34396425 0.48678073 0.426457 0.4666833 0.58441293
0.52181184 0.3183372 0.46347588 0.5043063 0.39121643 0.42422718 0.48572105 0.4460966
0.54025865 0.42457208 0.4818592 0.33199108 0.3215771 0.18122442 0.13859269 0.3411919
0.24012 0.39468756 0.58398515 0.46167994 0.39912376 0.33547786 0.3200948 0.30224514
0.13897793 0.22126245 0.42187408 0.50931585 0.541273 0.64694333 0.61555594 0.5570651
0.53742236 0.49769285 0.5602412 0.77079314 0.5510768 0.49220854 0.44326028 0.517187
0.57387227 0.4682792 0.30931938 0.22395198 0.2525786 0.26504704 0.19366613 0.17149931
00000000: cdd1 a8be d9a6 bcbe 4f96 1dbf 33c5 04bf
00000010: ca9d a5be eabe edbe d6c5 46be c487 4dbe
00000020: 2f3c c7be 2693 63be 9ef6 e4bd 829d 2cbe
00000030: eb83 bc3d 50a0 5cbd 2685 16be f84a 0cbe
00000040: ca34 003e e0ad 8ebd 470a 1abe 311b 3ebd
00000050: 52ef 3bbe 779f 58be 9f00 24be 20d7 cbbe
00000060: c06e 28bf 73f6 4cbe f540 77be 5e16 1dbf
00000070: 4f5c edbe 7bf5 e6be 58d0 1abe 8006 61be
00000080: 37c9 87be 842d 20be 879c 7dbe 0aca c5be
00000090: c525 a93c 5a54 3b3e 26b6 49be 1d9d 34bd
000000a0: 063b bd3b 99c2 39be 0795 373d d59e 9d3e
000000b0: 3b51 d8ba c75d 90bd 2402 463e 831c c93d
000000c0: c236 a6bd 23c9 b43c 0423 393e e493 c73c
000000d0: da91 2ebe f654 a1be 7866 05bf 1aec 56be
000000e0: 5ce2 1ebd f9c8 8abe c348 86be 2549 9ebe
000000f0: 5491 1bbe 4389 81be dd44 a7be dbde 8c3d
00000100: 62d1 463c cd29 16bd ddaa 213d eca4 503e
00000110: bba5 d8bc 8d82 0c3e 07f9 15bd e0c1 293d
00000120: 697e 763e e9c5 da3e 4bc2 3f3e 0b88 813c
00000130: ce9f 223d 56c8 56bd 12d2 4e3e 5d89 4f3e
00000140: 1786 db3e a7b0 1d3e ab26 49be f381 0abe
00000150: 68e0 6fbe 4188 ca3c 4cba b73d 17b2 5dbe
00000160: a3a6 5bbe bc88 bcbe 80b5 2e3d cb5a 00bd
00000170: 361c dfbd e4b1 c73d 1b95 673e 4b08 8e3e
00000180: 27fc a73e b30d 413e 1ecb 2a3e 0594 8d3e
00000190: d6a7 253d 0ab8 753e 28fd 933e 84ee 843e
000001a0: affb 753e cc93 883e 9bbd bfbd 453a 02bc
000001b0: 42ce e03e 01bb ca3e 8e12 ce3e da9e 7c3e
000001c0: a2b5 cd3d a817 313e 8027 a43e 6b9f a43d
000001d0: be2b 3b3e 5d62 c0bd 4f9b d5bd 358d 21be
000001e0: 2802 62bc 3d71 ae3d ce57 a13c 2f33 403e
000001f0: 89c3 0c3e a3b9 c23e a45e 6e3e 2c85 003e
00000200: 25fe 3b3e b603 1f3e 058c 253e 5ea2 c23e
00000210: c00e d53e ff95 423e c605 673e 05e1 fe3e
00000220: 3f09 873e e30e c63e 4485 203f 59e4 1a3f
00000230: 0bc4 603e 6f2c b13e 9e95 dd3d 6f02 953e
00000240: 4b76 9f3e e519 583e 33b5 8f3e 3ae7 193e
00000250: 3ed7 083e 539a 61bd 13d9 d83d 418e 173e
00000260: 2f02 783d 47f2 c4bd 9c92 003e f68b 483e
00000270: ec82 c23e 3452 ec3e d077 b53e d7b3 743e
00000280: 0050 073e 3d6c a03e 9cd2 c63d 5509 133e
00000290: 0734 263e 6947 f73e 4bc9 103f 3211 d23e
000002a0: 4af3 053f 63b8 083f b72b 9b3e dd41 963e
000002b0: 92ab 233e 1cca 853e 9725 b93e 0b8d 6d3e
000002c0: 6d5f c33e 35d6 eb3e 4eb9 673e fafd be3d
000002d0: 344b a53e cc36 df3e 77a5 493e 4d02 2d3e
000002e0: 1e6d 9f3e b11c cd3e 9abf aa3e 118d 103f
000002f0: 9491 a43e d9b4 8b3e 1dfb 6f3e a273 a4bc
00000300: 75bd 4a3d 3062 473e 32a6 603e 5d52 e43e
00000310: 5d9f 0d3f 7361 d43e 6e94 b53e 3f3c e83e
00000320: 6553 b13e 04c5 6b3e 28d5 0a3e 151c b03e
00000330: 533b f93e 9258 da3e 1df1 ee3e 169c 153f
00000340: 7695 053f 18fd a23e b64c ed3e 381a 013f
00000350: 854d c83e 4e34 d93e 6eb0 f83e c666 e43e
00000360: 644e 0a3f 8361 d93e 40b6 f63e bcfa a93e
00000370: c1a5 a43e e592 393e 3eeb 0d3e b4b0 ae3e
00000380: 04e2 753e 7d14 ca3e 0d80 153f 5061 ec3e
00000390: f359 cc3e c1c3 ab3e 77e3 a33e e0bf 9a3e
000003a0: 3b50 0e3e a092 623e e1ff d73e 8662 023f
000003b0: de90 0a3f 149e 253f 1395 1d3f d29b 0e3f
000003c0: 8394 093f 99d1 fe3e f86b 0f3f b352 453f
000003d0: 5f13 0d3f c202 fc3e 03f3 e23e 5e66 043f
000003e0: 4be9 123f 4bc2 ef3e 1c5f 9e3e ab53 653e
000003f0: fb51 813e 3fb4 873e 6a50 463e 849d 2f3e

linear_in.bias f4 [64]
-3.4070418 4.0725255 4.065822 -3.406186 1.0794913 -3.4302442 -3.4118717 4.190887
1.1711248 3.9795847 4.0752177 4.1747465 4.0800624 4.09998 4.187288 4.062559
4.16072 -3.426112 -3.3987894 -3.4371583 4.205487 -3.4083576 4.0633693 4.1012874
4.0391207 4.1367784 -3.4332666 -3.4257102 4.054662 4.0236797 -3.4169888 4.1760125
4.2319326 4.1741385 4.1349206 4.043598 -3.4225078 4.0478845 4.0828166 1.0982491
-3.3937008 4.0037446 4.023333 -3.4463203 -3.4205914 4.10727 4.059261 4.002706
-3.3835826 4.0539956 4.063275 1.1681926 1.0650879 1.1203916 -3.3736496 4.1841836
4.127527 -3.4235907 4.00753 4.0405536 4.180637 4.1682196 4.059002 1.083894
00000000: f90c 5ac0 2152 8240 371b 8240 f4fe 59c0
00000010: c52c 8a3f 1f89 5bc0 1b5c 5ac0 bf1b 8640
00000020: 6be7 953f 84b1 7e40 2f68 8240 8697 8540
00000030: df8f 8240 0933 8340 43fe 8540 7c00 8240
00000040: 9e24 8540 6b45 5bc0 c485 59c0 67fa 5bc0
00000050: 5993 8640 8822 5ac0 1f07 8240 bf3d 8340
00000060: 7a40 8140 7d60 8440 a4ba 5bc0 d63e 5bc0
00000070: cbbf 8140 fcc1 8040 f2af 5ac0 e5a1 8540
00000080: fe6b 8740 8b92 8540 4551 8440 2865 8140
00000090: 5e0a 5bc0 4588 8140 6fa6 8240 6d93 8c3f
000000a0: 6532 59c0 ad1e 8040 25bf 8040 8390 5cc0
000000b0: f8ea 5ac0 c16e 8340 77e5 8140 2b16 8040
000000c0: 9e8c 58c0 55ba 8140 5906 8240 5687 953f
000000d0: cd54 883f fe68 8f3f e0e9 57c0 d5e4 8540
000000e0: b414 8440 1c1c 5bc0 b03d 8040 374c 8140
000000f0: c7c7 8540 0e62 8540 58e3 8140 0abd 8a3f

state_value.weight f4 [1, 64]
1.3797536 -0.976127 -1.0622224 1.4738932 -1.2563199 1.4086304 1.437387 -0.83368176
-1.3938609 -0.95134807 -1.0045434 -0.7856285 -0.97491825 -0.95957327 -0.7482851 -1.1099749
-0.8157017 1.3721687 1.3970921 1.3787452 -0.810045 1.3943968 -0.9765956 -0.9972378
-1.1040926 -0.9198195 1.4036871 1.3762243 -1.0350649 -0.8891799 1.432323 -0.8006189
-0.7715163 -0.8066262 -0.8627866 -1.1147025 1.4816813 -1.0739007 -0.9368126 -1.262894
1.3792567 -1.1186225 -0.88735896 1.4301916 1.4407244 -1.001803 -0.9692919 -1.1056271
1.4823837 -1.0888175 -1.0589048 -1.3162098 -1.2529634 -1.2723706 1.4339528 -0.79860413
-0.8418094 1.4321486 -1.1334903 -1.088619 -0.8225156 -0.8162325 -1.0505028 -1.2450691
00000000: c49b b03f 76e3 79bf e7f6 87bf 88a8 bc3f
00000010: 17cf a0bf 004e b43f 4cfc b73f 2b6c 55bf
00000020: 096a b2bf 8c8b 73bf e194 80bf f31e 49bf
00000030: 3e94 79bf 98a6 75bf 9d8f 3fbf a813 8ebf
00000040: d4d1 50bf 39a3 af3f ead3 b23f b97a b03f
00000050: 1c5f 4fbf 987b b23f 2b02 7abf fa4a 7fbf
00000060: e852 8dbf 4a79 6bbf 05ac b33f 1e28 b03f
00000070: 027d 84bf 4ba1 63bf 5c56 b73f 5cf5 4cbf
00000080: 1882 45bf 0e7f 4ebf 95df 5cbf 92ae 8ebf
00000090: bca7 bd3f 9475 89bf f3d2 6fbf 83a6 a1bf
000000a0: 7c8b b03f 062f 8fbf f529 63bf 8510 b73f
000000b0: a869 b83f 153b 80bf 8423 78bf 3085 8dbf
000000c0: c0be bd3f 5f5e 8bbf 318a 87bf 9079 a8bf
000000d0: 1b61 a0bf 0add a2bf c48b b73f 5271 4cbf
000000e0: d280 57bf a550 b73f 3616 91bf de57 8bbf
000000f0: 6290 52bf 9df4 50bf e076 86bf 6d5e 9fbf
